{
  "nodes": [
    {
      "op": "null", 
      "name": "data", 
      "inputs": []
    }, 
    {
      "op": "null", 
      "name": "conv1_weight", 
      "attrs": {
        "kernel": "(3, 3)", 
        "num_filter": "64", 
        "pad": "(2, 2)", 
        "stride": "(1, 1)"
      }, 
      "inputs": []
    }, 
    {
      "op": "null", 
      "name": "conv1_bias", 
      "attrs": {
        "kernel": "(3, 3)", 
        "num_filter": "64", 
        "pad": "(2, 2)", 
        "stride": "(1, 1)"
      }, 
      "inputs": []
    }, 
    {
      "op": "Convolution", 
      "name": "conv1", 
      "attrs": {
        "kernel": "(3, 3)", 
        "num_filter": "64", 
        "pad": "(2, 2)", 
        "stride": "(1, 1)"
      }, 
      "inputs": [[0, 0, 0], [1, 0, 0], [2, 0, 0]]
    }, 
    {
      "op": "Activation", 
      "name": "activation0", 
      "attrs": {"act_type": "relu"}, 
      "inputs": [[3, 0, 0]]
    }, 
    {
      "op": "null", 
      "name": "conv2_weight", 
      "attrs": {
        "kernel": "(3, 3)", 
        "num_filter": "128", 
        "pad": "(0, 0)", 
        "stride": "(1, 1)"
      }, 
      "inputs": []
    }, 
    {
      "op": "null", 
      "name": "conv2_bias", 
      "attrs": {
        "kernel": "(3, 3)", 
        "num_filter": "128", 
        "pad": "(0, 0)", 
        "stride": "(1, 1)"
      }, 
      "inputs": []
    }, 
    {
      "op": "Convolution", 
      "name": "conv2", 
      "attrs": {
        "kernel": "(3, 3)", 
        "num_filter": "128", 
        "pad": "(0, 0)", 
        "stride": "(1, 1)"
      }, 
      "inputs": [[4, 0, 0], [5, 0, 0], [6, 0, 0]]
    }, 
    {
      "op": "Activation", 
      "name": "activation1", 
      "attrs": {"act_type": "relu"}, 
      "inputs": [[7, 0, 0]]
    }, 
    {
      "op": "Pooling", 
      "name": "pooling0", 
      "attrs": {
        "kernel": "(2, 2)", 
        "pad": "(0, 0)", 
        "pool_type": "max", 
        "stride": "(2, 2)"
      }, 
      "inputs": [[8, 0, 0]]
    }, 
    {
      "op": "null", 
      "name": "conv3_weight", 
      "attrs": {
        "kernel": "(3, 3)", 
        "num_filter": "256", 
        "pad": "(0, 0)", 
        "stride": "(2, 2)"
      }, 
      "inputs": []
    }, 
    {
      "op": "null", 
      "name": "conv3_bias", 
      "attrs": {
        "kernel": "(3, 3)", 
        "num_filter": "256", 
        "pad": "(0, 0)", 
        "stride": "(2, 2)"
      }, 
      "inputs": []
    }, 
    {
      "op": "Convolution", 
      "name": "conv3", 
      "attrs": {
        "kernel": "(3, 3)", 
        "num_filter": "256", 
        "pad": "(0, 0)", 
        "stride": "(2, 2)"
      }, 
      "inputs": [[9, 0, 0], [10, 0, 0], [11, 0, 0]]
    }, 
    {
      "op": "Activation", 
      "name": "activation2", 
      "attrs": {"act_type": "relu"}, 
      "inputs": [[12, 0, 0]]
    }, 
    {
      "op": "Dropout", 
      "name": "dropout0", 
      "attrs": {"p": "0.2"}, 
      "inputs": [[13, 0, 0]]
    }, 
    {
      "op": "SliceChannel", 
      "name": "split0", 
      "attrs": {
        "axis": "3", 
        "num_outputs": "199"
      }, 
      "inputs": [[14, 0, 0]]
    }, 
    {
      "op": "null", 
      "name": "gru_0i2h_weight", 
      "inputs": []
    }, 
    {
      "op": "null", 
      "name": "gru_0i2h_bias", 
      "inputs": []
    }, 
    {
      "op": "FullyConnected", 
      "name": "gru_0t0__i2h", 
      "attrs": {"num_hidden": "768"}, 
      "inputs": [[15, 0, 0], [16, 0, 0], [17, 0, 0]]
    }, 
    {
      "op": "SliceChannel", 
      "name": "gru_0t0__i2h_slice", 
      "attrs": {"num_outputs": "3"}, 
      "inputs": [[18, 0, 0]]
    }, 
    {
      "op": "_zeros", 
      "name": "gru_0begin_state_0", 
      "attrs": {
        "__layout__": "NC", 
        "dtype": "float32", 
        "shape": "(0, 256)"
      }, 
      "inputs": []
    }, 
    {
      "op": "null", 
      "name": "gru_0h2h_weight", 
      "inputs": []
    }, 
    {
      "op": "null", 
      "name": "gru_0h2h_bias", 
      "inputs": []
    }, 
    {
      "op": "FullyConnected", 
      "name": "gru_0t0__h2h", 
      "attrs": {"num_hidden": "768"}, 
      "inputs": [[20, 0, 0], [21, 0, 0], [22, 0, 0]]
    }, 
    {
      "op": "SliceChannel", 
      "name": "gru_0t0__h2h_slice", 
      "attrs": {"num_outputs": "3"}, 
      "inputs": [[23, 0, 0]]
    }, 
    {
      "op": "elemwise_add", 
      "name": "_plus1", 
      "inputs": [[19, 1, 0], [24, 1, 0]]
    }, 
    {
      "op": "Activation", 
      "name": "gru_0t0__z_act", 
      "attrs": {"act_type": "sigmoid"}, 
      "inputs": [[25, 0, 0]]
    }, 
    {
      "op": "_rminus_scalar", 
      "name": "_rminusscalar0", 
      "attrs": {"scalar": "1.0"}, 
      "inputs": [[26, 0, 0]]
    }, 
    {
      "op": "elemwise_add", 
      "name": "_plus0", 
      "inputs": [[19, 0, 0], [24, 0, 0]]
    }, 
    {
      "op": "Activation", 
      "name": "gru_0t0__r_act", 
      "attrs": {"act_type": "sigmoid"}, 
      "inputs": [[28, 0, 0]]
    }, 
    {
      "op": "elemwise_mul", 
      "name": "_mul0", 
      "inputs": [[29, 0, 0], [24, 2, 0]]
    }, 
    {
      "op": "elemwise_add", 
      "name": "_plus2", 
      "inputs": [[19, 2, 0], [30, 0, 0]]
    }, 
    {
      "op": "Activation", 
      "name": "gru_0t0__h_act", 
      "attrs": {"act_type": "tanh"}, 
      "inputs": [[31, 0, 0]]
    }, 
    {
      "op": "elemwise_mul", 
      "name": "_mul1", 
      "inputs": [[27, 0, 0], [32, 0, 0]]
    }, 
    {
      "op": "elemwise_mul", 
      "name": "_mul2", 
      "inputs": [[26, 0, 0], [20, 0, 0]]
    }, 
    {
      "op": "elemwise_add", 
      "name": "gru_0t0_out", 
      "inputs": [[33, 0, 0], [34, 0, 0]]
    }, 
    {
      "op": "null", 
      "name": "gru_1i2h_weight", 
      "inputs": []
    }, 
    {
      "op": "null", 
      "name": "gru_1i2h_bias", 
      "inputs": []
    }, 
    {
      "op": "FullyConnected", 
      "name": "gru_1t0__i2h", 
      "attrs": {"num_hidden": "768"}, 
      "inputs": [[35, 0, 0], [36, 0, 0], [37, 0, 0]]
    }, 
    {
      "op": "SliceChannel", 
      "name": "gru_1t0__i2h_slice", 
      "attrs": {"num_outputs": "3"}, 
      "inputs": [[38, 0, 0]]
    }, 
    {
      "op": "_zeros", 
      "name": "gru_1begin_state_0", 
      "attrs": {
        "__layout__": "NC", 
        "dtype": "float32", 
        "shape": "(0, 256)"
      }, 
      "inputs": []
    }, 
    {
      "op": "null", 
      "name": "gru_1h2h_weight", 
      "inputs": []
    }, 
    {
      "op": "null", 
      "name": "gru_1h2h_bias", 
      "inputs": []
    }, 
    {
      "op": "FullyConnected", 
      "name": "gru_1t0__h2h", 
      "attrs": {"num_hidden": "768"}, 
      "inputs": [[40, 0, 0], [41, 0, 0], [42, 0, 0]]
    }, 
    {
      "op": "SliceChannel", 
      "name": "gru_1t0__h2h_slice", 
      "attrs": {"num_outputs": "3"}, 
      "inputs": [[43, 0, 0]]
    }, 
    {
      "op": "elemwise_add", 
      "name": "_plus598", 
      "inputs": [[39, 1, 0], [44, 1, 0]]
    }, 
    {
      "op": "Activation", 
      "name": "gru_1t0__z_act", 
      "attrs": {"act_type": "sigmoid"}, 
      "inputs": [[45, 0, 0]]
    }, 
    {
      "op": "_rminus_scalar", 
      "name": "_rminusscalar199", 
      "attrs": {"scalar": "1.0"}, 
      "inputs": [[46, 0, 0]]
    }, 
    {
      "op": "elemwise_add", 
      "name": "_plus597", 
      "inputs": [[39, 0, 0], [44, 0, 0]]
    }, 
    {
      "op": "Activation", 
      "name": "gru_1t0__r_act", 
      "attrs": {"act_type": "sigmoid"}, 
      "inputs": [[48, 0, 0]]
    }, 
    {
      "op": "elemwise_mul", 
      "name": "_mul597", 
      "inputs": [[49, 0, 0], [44, 2, 0]]
    }, 
    {
      "op": "elemwise_add", 
      "name": "_plus599", 
      "inputs": [[39, 2, 0], [50, 0, 0]]
    }, 
    {
      "op": "Activation", 
      "name": "gru_1t0__h_act", 
      "attrs": {"act_type": "tanh"}, 
      "inputs": [[51, 0, 0]]
    }, 
    {
      "op": "elemwise_mul", 
      "name": "_mul598", 
      "inputs": [[47, 0, 0], [52, 0, 0]]
    }, 
    {
      "op": "elemwise_mul", 
      "name": "_mul599", 
      "inputs": [[46, 0, 0], [40, 0, 0]]
    }, 
    {
      "op": "elemwise_add", 
      "name": "gru_1t0_out", 
      "inputs": [[53, 0, 0], [54, 0, 0]]
    }, 
    {
      "op": "FullyConnected", 
      "name": "gru_0t1__i2h", 
      "attrs": {"num_hidden": "768"}, 
      "inputs": [[15, 1, 0], [16, 0, 0], [17, 0, 0]]
    }, 
    {
      "op": "SliceChannel", 
      "name": "gru_0t1__i2h_slice", 
      "attrs": {"num_outputs": "3"}, 
      "inputs": [[56, 0, 0]]
    }, 
    {
      "op": "FullyConnected", 
      "name": "gru_0t1__h2h", 
      "attrs": {"num_hidden": "768"}, 
      "inputs": [[35, 0, 0], [21, 0, 0], [22, 0, 0]]
    }, 
    {
      "op": "SliceChannel", 
      "name": "gru_0t1__h2h_slice", 
      "attrs": {"num_outputs": "3"}, 
      "inputs": [[58, 0, 0]]
    }, 
    {
      "op": "elemwise_add", 
      "name": "_plus4", 
      "inputs": [[57, 1, 0], [59, 1, 0]]
    }, 
    {
      "op": "Activation", 
      "name": "gru_0t1__z_act", 
      "attrs": {"act_type": "sigmoid"}, 
      "inputs": [[60, 0, 0]]
    }, 
    {
      "op": "_rminus_scalar", 
      "name": "_rminusscalar1", 
      "attrs": {"scalar": "1.0"}, 
      "inputs": [[61, 0, 0]]
    }, 
    {
      "op": "elemwise_add", 
      "name": "_plus3", 
      "inputs": [[57, 0, 0], [59, 0, 0]]
    }, 
    {
      "op": "Activation", 
      "name": "gru_0t1__r_act", 
      "attrs": {"act_type": "sigmoid"}, 
      "inputs": [[63, 0, 0]]
    }, 
    {
      "op": "elemwise_mul", 
      "name": "_mul3", 
      "inputs": [[64, 0, 0], [59, 2, 0]]
    }, 
    {
      "op": "elemwise_add", 
      "name": "_plus5", 
      "inputs": [[57, 2, 0], [65, 0, 0]]
    }, 
    {
      "op": "Activation", 
      "name": "gru_0t1__h_act", 
      "attrs": {"act_type": "tanh"}, 
      "inputs": [[66, 0, 0]]
    }, 
    {
      "op": "elemwise_mul", 
      "name": "_mul4", 
      "inputs": [[62, 0, 0], [67, 0, 0]]
    }, 
    {
      "op": "elemwise_mul", 
      "name": "_mul5", 
      "inputs": [[61, 0, 0], [35, 0, 0]]
    }, 
    {
      "op": "elemwise_add", 
      "name": "gru_0t1_out", 
      "inputs": [[68, 0, 0], [69, 0, 0]]
    }, 
    {
      "op": "FullyConnected", 
      "name": "gru_1t1__i2h", 
      "attrs": {"num_hidden": "768"}, 
      "inputs": [[70, 0, 0], [36, 0, 0], [37, 0, 0]]
    }, 
    {
      "op": "SliceChannel", 
      "name": "gru_1t1__i2h_slice", 
      "attrs": {"num_outputs": "3"}, 
      "inputs": [[71, 0, 0]]
    }, 
    {
      "op": "FullyConnected", 
      "name": "gru_1t1__h2h", 
      "attrs": {"num_hidden": "768"}, 
      "inputs": [[55, 0, 0], [41, 0, 0], [42, 0, 0]]
    }, 
    {
      "op": "SliceChannel", 
      "name": "gru_1t1__h2h_slice", 
      "attrs": {"num_outputs": "3"}, 
      "inputs": [[73, 0, 0]]
    }, 
    {
      "op": "elemwise_add", 
      "name": "_plus601", 
      "inputs": [[72, 1, 0], [74, 1, 0]]
    }, 
    {
      "op": "Activation", 
      "name": "gru_1t1__z_act", 
      "attrs": {"act_type": "sigmoid"}, 
      "inputs": [[75, 0, 0]]
    }, 
    {
      "op": "_rminus_scalar", 
      "name": "_rminusscalar200", 
      "attrs": {"scalar": "1.0"}, 
      "inputs": [[76, 0, 0]]
    }, 
    {
      "op": "elemwise_add", 
      "name": "_plus600", 
      "inputs": [[72, 0, 0], [74, 0, 0]]
    }, 
    {
      "op": "Activation", 
      "name": "gru_1t1__r_act", 
      "attrs": {"act_type": "sigmoid"}, 
      "inputs": [[78, 0, 0]]
    }, 
    {
      "op": "elemwise_mul", 
      "name": "_mul600", 
      "inputs": [[79, 0, 0], [74, 2, 0]]
    }, 
    {
      "op": "elemwise_add", 
      "name": "_plus602", 
      "inputs": [[72, 2, 0], [80, 0, 0]]
    }, 
    {
      "op": "Activation", 
      "name": "gru_1t1__h_act", 
      "attrs": {"act_type": "tanh"}, 
      "inputs": [[81, 0, 0]]
    }, 
    {
      "op": "elemwise_mul", 
      "name": "_mul601", 
      "inputs": [[77, 0, 0], [82, 0, 0]]
    }, 
    {
      "op": "elemwise_mul", 
      "name": "_mul602", 
      "inputs": [[76, 0, 0], [55, 0, 0]]
    }, 
    {
      "op": "elemwise_add", 
      "name": "gru_1t1_out", 
      "inputs": [[83, 0, 0], [84, 0, 0]]
    }, 
    {
      "op": "FullyConnected", 
      "name": "gru_0t2__i2h", 
      "attrs": {"num_hidden": "768"}, 
      "inputs": [[15, 2, 0], [16, 0, 0], [17, 0, 0]]
    }, 
    {
      "op": "SliceChannel", 
      "name": "gru_0t2__i2h_slice", 
      "attrs": {"num_outputs": "3"}, 
      "inputs": [[86, 0, 0]]
    }, 
    {
      "op": "FullyConnected", 
      "name": "gru_0t2__h2h", 
      "attrs": {"num_hidden": "768"}, 
      "inputs": [[70, 0, 0], [21, 0, 0], [22, 0, 0]]
    }, 
    {
      "op": "SliceChannel", 
      "name": "gru_0t2__h2h_slice", 
      "attrs": {"num_outputs": "3"}, 
      "inputs": [[88, 0, 0]]
    }, 
    {
      "op": "elemwise_add", 
      "name": "_plus7", 
      "inputs": [[87, 1, 0], [89, 1, 0]]
    }, 
    {
      "op": "Activation", 
      "name": "gru_0t2__z_act", 
      "attrs": {"act_type": "sigmoid"}, 
      "inputs": [[90, 0, 0]]
    }, 
    {
      "op": "_rminus_scalar", 
      "name": "_rminusscalar2", 
      "attrs": {"scalar": "1.0"}, 
      "inputs": [[91, 0, 0]]
    }, 
    {
      "op": "elemwise_add", 
      "name": "_plus6", 
      "inputs": [[87, 0, 0], [89, 0, 0]]
    }, 
    {
      "op": "Activation", 
      "name": "gru_0t2__r_act", 
      "attrs": {"act_type": "sigmoid"}, 
      "inputs": [[93, 0, 0]]
    }, 
    {
      "op": "elemwise_mul", 
      "name": "_mul6", 
      "inputs": [[94, 0, 0], [89, 2, 0]]
    }, 
    {
      "op": "elemwise_add", 
      "name": "_plus8", 
      "inputs": [[87, 2, 0], [95, 0, 0]]
    }, 
    {
      "op": "Activation", 
      "name": "gru_0t2__h_act", 
      "attrs": {"act_type": "tanh"}, 
      "inputs": [[96, 0, 0]]
    }, 
    {
      "op": "elemwise_mul", 
      "name": "_mul7", 
      "inputs": [[92, 0, 0], [97, 0, 0]]
    }, 
    {
      "op": "elemwise_mul", 
      "name": "_mul8", 
      "inputs": [[91, 0, 0], [70, 0, 0]]
    }, 
    {
      "op": "elemwise_add", 
      "name": "gru_0t2_out", 
      "inputs": [[98, 0, 0], [99, 0, 0]]
    }, 
    {
      "op": "FullyConnected", 
      "name": "gru_1t2__i2h", 
      "attrs": {"num_hidden": "768"}, 
      "inputs": [[100, 0, 0], [36, 0, 0], [37, 0, 0]]
    }, 
    {
      "op": "SliceChannel", 
      "name": "gru_1t2__i2h_slice", 
      "attrs": {"num_outputs": "3"}, 
      "inputs": [[101, 0, 0]]
    }, 
    {
      "op": "FullyConnected", 
      "name": "gru_1t2__h2h", 
      "attrs": {"num_hidden": "768"}, 
      "inputs": [[85, 0, 0], [41, 0, 0], [42, 0, 0]]
    }, 
    {
      "op": "SliceChannel", 
      "name": "gru_1t2__h2h_slice", 
      "attrs": {"num_outputs": "3"}, 
      "inputs": [[103, 0, 0]]
    }, 
    {
      "op": "elemwise_add", 
      "name": "_plus604", 
      "inputs": [[102, 1, 0], [104, 1, 0]]
    }, 
    {
      "op": "Activation", 
      "name": "gru_1t2__z_act", 
      "attrs": {"act_type": "sigmoid"}, 
      "inputs": [[105, 0, 0]]
    }, 
    {
      "op": "_rminus_scalar", 
      "name": "_rminusscalar201", 
      "attrs": {"scalar": "1.0"}, 
      "inputs": [[106, 0, 0]]
    }, 
    {
      "op": "elemwise_add", 
      "name": "_plus603", 
      "inputs": [[102, 0, 0], [104, 0, 0]]
    }, 
    {
      "op": "Activation", 
      "name": "gru_1t2__r_act", 
      "attrs": {"act_type": "sigmoid"}, 
      "inputs": [[108, 0, 0]]
    }, 
    {
      "op": "elemwise_mul", 
      "name": "_mul603", 
      "inputs": [[109, 0, 0], [104, 2, 0]]
    }, 
    {
      "op": "elemwise_add", 
      "name": "_plus605", 
      "inputs": [[102, 2, 0], [110, 0, 0]]
    }, 
    {
      "op": "Activation", 
      "name": "gru_1t2__h_act", 
      "attrs": {"act_type": "tanh"}, 
      "inputs": [[111, 0, 0]]
    }, 
    {
      "op": "elemwise_mul", 
      "name": "_mul604", 
      "inputs": [[107, 0, 0], [112, 0, 0]]
    }, 
    {
      "op": "elemwise_mul", 
      "name": "_mul605", 
      "inputs": [[106, 0, 0], [85, 0, 0]]
    }, 
    {
      "op": "elemwise_add", 
      "name": "gru_1t2_out", 
      "inputs": [[113, 0, 0], [114, 0, 0]]
    }, 
    {
      "op": "FullyConnected", 
      "name": "gru_0t3__i2h", 
      "attrs": {"num_hidden": "768"}, 
      "inputs": [[15, 3, 0], [16, 0, 0], [17, 0, 0]]
    }, 
    {
      "op": "SliceChannel", 
      "name": "gru_0t3__i2h_slice", 
      "attrs": {"num_outputs": "3"}, 
      "inputs": [[116, 0, 0]]
    }, 
    {
      "op": "FullyConnected", 
      "name": "gru_0t3__h2h", 
      "attrs": {"num_hidden": "768"}, 
      "inputs": [[100, 0, 0], [21, 0, 0], [22, 0, 0]]
    }, 
    {
      "op": "SliceChannel", 
      "name": "gru_0t3__h2h_slice", 
      "attrs": {"num_outputs": "3"}, 
      "inputs": [[118, 0, 0]]
    }, 
    {
      "op": "elemwise_add", 
      "name": "_plus10", 
      "inputs": [[117, 1, 0], [119, 1, 0]]
    }, 
    {
      "op": "Activation", 
      "name": "gru_0t3__z_act", 
      "attrs": {"act_type": "sigmoid"}, 
      "inputs": [[120, 0, 0]]
    }, 
    {
      "op": "_rminus_scalar", 
      "name": "_rminusscalar3", 
      "attrs": {"scalar": "1.0"}, 
      "inputs": [[121, 0, 0]]
    }, 
    {
      "op": "elemwise_add", 
      "name": "_plus9", 
      "inputs": [[117, 0, 0], [119, 0, 0]]
    }, 
    {
      "op": "Activation", 
      "name": "gru_0t3__r_act", 
      "attrs": {"act_type": "sigmoid"}, 
      "inputs": [[123, 0, 0]]
    }, 
    {
      "op": "elemwise_mul", 
      "name": "_mul9", 
      "inputs": [[124, 0, 0], [119, 2, 0]]
    }, 
    {
      "op": "elemwise_add", 
      "name": "_plus11", 
      "inputs": [[117, 2, 0], [125, 0, 0]]
    }, 
    {
      "op": "Activation", 
      "name": "gru_0t3__h_act", 
      "attrs": {"act_type": "tanh"}, 
      "inputs": [[126, 0, 0]]
    }, 
    {
      "op": "elemwise_mul", 
      "name": "_mul10", 
      "inputs": [[122, 0, 0], [127, 0, 0]]
    }, 
    {
      "op": "elemwise_mul", 
      "name": "_mul11", 
      "inputs": [[121, 0, 0], [100, 0, 0]]
    }, 
    {
      "op": "elemwise_add", 
      "name": "gru_0t3_out", 
      "inputs": [[128, 0, 0], [129, 0, 0]]
    }, 
    {
      "op": "FullyConnected", 
      "name": "gru_1t3__i2h", 
      "attrs": {"num_hidden": "768"}, 
      "inputs": [[130, 0, 0], [36, 0, 0], [37, 0, 0]]
    }, 
    {
      "op": "SliceChannel", 
      "name": "gru_1t3__i2h_slice", 
      "attrs": {"num_outputs": "3"}, 
      "inputs": [[131, 0, 0]]
    }, 
    {
      "op": "FullyConnected", 
      "name": "gru_1t3__h2h", 
      "attrs": {"num_hidden": "768"}, 
      "inputs": [[115, 0, 0], [41, 0, 0], [42, 0, 0]]
    }, 
    {
      "op": "SliceChannel", 
      "name": "gru_1t3__h2h_slice", 
      "attrs": {"num_outputs": "3"}, 
      "inputs": [[133, 0, 0]]
    }, 
    {
      "op": "elemwise_add", 
      "name": "_plus607", 
      "inputs": [[132, 1, 0], [134, 1, 0]]
    }, 
    {
      "op": "Activation", 
      "name": "gru_1t3__z_act", 
      "attrs": {"act_type": "sigmoid"}, 
      "inputs": [[135, 0, 0]]
    }, 
    {
      "op": "_rminus_scalar", 
      "name": "_rminusscalar202", 
      "attrs": {"scalar": "1.0"}, 
      "inputs": [[136, 0, 0]]
    }, 
    {
      "op": "elemwise_add", 
      "name": "_plus606", 
      "inputs": [[132, 0, 0], [134, 0, 0]]
    }, 
    {
      "op": "Activation", 
      "name": "gru_1t3__r_act", 
      "attrs": {"act_type": "sigmoid"}, 
      "inputs": [[138, 0, 0]]
    }, 
    {
      "op": "elemwise_mul", 
      "name": "_mul606", 
      "inputs": [[139, 0, 0], [134, 2, 0]]
    }, 
    {
      "op": "elemwise_add", 
      "name": "_plus608", 
      "inputs": [[132, 2, 0], [140, 0, 0]]
    }, 
    {
      "op": "Activation", 
      "name": "gru_1t3__h_act", 
      "attrs": {"act_type": "tanh"}, 
      "inputs": [[141, 0, 0]]
    }, 
    {
      "op": "elemwise_mul", 
      "name": "_mul607", 
      "inputs": [[137, 0, 0], [142, 0, 0]]
    }, 
    {
      "op": "elemwise_mul", 
      "name": "_mul608", 
      "inputs": [[136, 0, 0], [115, 0, 0]]
    }, 
    {
      "op": "elemwise_add", 
      "name": "gru_1t3_out", 
      "inputs": [[143, 0, 0], [144, 0, 0]]
    }, 
    {
      "op": "FullyConnected", 
      "name": "gru_0t4__i2h", 
      "attrs": {"num_hidden": "768"}, 
      "inputs": [[15, 4, 0], [16, 0, 0], [17, 0, 0]]
    }, 
    {
      "op": "SliceChannel", 
      "name": "gru_0t4__i2h_slice", 
      "attrs": {"num_outputs": "3"}, 
      "inputs": [[146, 0, 0]]
    }, 
    {
      "op": "FullyConnected", 
      "name": "gru_0t4__h2h", 
      "attrs": {"num_hidden": "768"}, 
      "inputs": [[130, 0, 0], [21, 0, 0], [22, 0, 0]]
    }, 
    {
      "op": "SliceChannel", 
      "name": "gru_0t4__h2h_slice", 
      "attrs": {"num_outputs": "3"}, 
      "inputs": [[148, 0, 0]]
    }, 
    {
      "op": "elemwise_add", 
      "name": "_plus13", 
      "inputs": [[147, 1, 0], [149, 1, 0]]
    }, 
    {
      "op": "Activation", 
      "name": "gru_0t4__z_act", 
      "attrs": {"act_type": "sigmoid"}, 
      "inputs": [[150, 0, 0]]
    }, 
    {
      "op": "_rminus_scalar", 
      "name": "_rminusscalar4", 
      "attrs": {"scalar": "1.0"}, 
      "inputs": [[151, 0, 0]]
    }, 
    {
      "op": "elemwise_add", 
      "name": "_plus12", 
      "inputs": [[147, 0, 0], [149, 0, 0]]
    }, 
    {
      "op": "Activation", 
      "name": "gru_0t4__r_act", 
      "attrs": {"act_type": "sigmoid"}, 
      "inputs": [[153, 0, 0]]
    }, 
    {
      "op": "elemwise_mul", 
      "name": "_mul12", 
      "inputs": [[154, 0, 0], [149, 2, 0]]
    }, 
    {
      "op": "elemwise_add", 
      "name": "_plus14", 
      "inputs": [[147, 2, 0], [155, 0, 0]]
    }, 
    {
      "op": "Activation", 
      "name": "gru_0t4__h_act", 
      "attrs": {"act_type": "tanh"}, 
      "inputs": [[156, 0, 0]]
    }, 
    {
      "op": "elemwise_mul", 
      "name": "_mul13", 
      "inputs": [[152, 0, 0], [157, 0, 0]]
    }, 
    {
      "op": "elemwise_mul", 
      "name": "_mul14", 
      "inputs": [[151, 0, 0], [130, 0, 0]]
    }, 
    {
      "op": "elemwise_add", 
      "name": "gru_0t4_out", 
      "inputs": [[158, 0, 0], [159, 0, 0]]
    }, 
    {
      "op": "FullyConnected", 
      "name": "gru_1t4__i2h", 
      "attrs": {"num_hidden": "768"}, 
      "inputs": [[160, 0, 0], [36, 0, 0], [37, 0, 0]]
    }, 
    {
      "op": "SliceChannel", 
      "name": "gru_1t4__i2h_slice", 
      "attrs": {"num_outputs": "3"}, 
      "inputs": [[161, 0, 0]]
    }, 
    {
      "op": "FullyConnected", 
      "name": "gru_1t4__h2h", 
      "attrs": {"num_hidden": "768"}, 
      "inputs": [[145, 0, 0], [41, 0, 0], [42, 0, 0]]
    }, 
    {
      "op": "SliceChannel", 
      "name": "gru_1t4__h2h_slice", 
      "attrs": {"num_outputs": "3"}, 
      "inputs": [[163, 0, 0]]
    }, 
    {
      "op": "elemwise_add", 
      "name": "_plus610", 
      "inputs": [[162, 1, 0], [164, 1, 0]]
    }, 
    {
      "op": "Activation", 
      "name": "gru_1t4__z_act", 
      "attrs": {"act_type": "sigmoid"}, 
      "inputs": [[165, 0, 0]]
    }, 
    {
      "op": "_rminus_scalar", 
      "name": "_rminusscalar203", 
      "attrs": {"scalar": "1.0"}, 
      "inputs": [[166, 0, 0]]
    }, 
    {
      "op": "elemwise_add", 
      "name": "_plus609", 
      "inputs": [[162, 0, 0], [164, 0, 0]]
    }, 
    {
      "op": "Activation", 
      "name": "gru_1t4__r_act", 
      "attrs": {"act_type": "sigmoid"}, 
      "inputs": [[168, 0, 0]]
    }, 
    {
      "op": "elemwise_mul", 
      "name": "_mul609", 
      "inputs": [[169, 0, 0], [164, 2, 0]]
    }, 
    {
      "op": "elemwise_add", 
      "name": "_plus611", 
      "inputs": [[162, 2, 0], [170, 0, 0]]
    }, 
    {
      "op": "Activation", 
      "name": "gru_1t4__h_act", 
      "attrs": {"act_type": "tanh"}, 
      "inputs": [[171, 0, 0]]
    }, 
    {
      "op": "elemwise_mul", 
      "name": "_mul610", 
      "inputs": [[167, 0, 0], [172, 0, 0]]
    }, 
    {
      "op": "elemwise_mul", 
      "name": "_mul611", 
      "inputs": [[166, 0, 0], [145, 0, 0]]
    }, 
    {
      "op": "elemwise_add", 
      "name": "gru_1t4_out", 
      "inputs": [[173, 0, 0], [174, 0, 0]]
    }, 
    {
      "op": "FullyConnected", 
      "name": "gru_0t5__i2h", 
      "attrs": {"num_hidden": "768"}, 
      "inputs": [[15, 5, 0], [16, 0, 0], [17, 0, 0]]
    }, 
    {
      "op": "SliceChannel", 
      "name": "gru_0t5__i2h_slice", 
      "attrs": {"num_outputs": "3"}, 
      "inputs": [[176, 0, 0]]
    }, 
    {
      "op": "FullyConnected", 
      "name": "gru_0t5__h2h", 
      "attrs": {"num_hidden": "768"}, 
      "inputs": [[160, 0, 0], [21, 0, 0], [22, 0, 0]]
    }, 
    {
      "op": "SliceChannel", 
      "name": "gru_0t5__h2h_slice", 
      "attrs": {"num_outputs": "3"}, 
      "inputs": [[178, 0, 0]]
    }, 
    {
      "op": "elemwise_add", 
      "name": "_plus16", 
      "inputs": [[177, 1, 0], [179, 1, 0]]
    }, 
    {
      "op": "Activation", 
      "name": "gru_0t5__z_act", 
      "attrs": {"act_type": "sigmoid"}, 
      "inputs": [[180, 0, 0]]
    }, 
    {
      "op": "_rminus_scalar", 
      "name": "_rminusscalar5", 
      "attrs": {"scalar": "1.0"}, 
      "inputs": [[181, 0, 0]]
    }, 
    {
      "op": "elemwise_add", 
      "name": "_plus15", 
      "inputs": [[177, 0, 0], [179, 0, 0]]
    }, 
    {
      "op": "Activation", 
      "name": "gru_0t5__r_act", 
      "attrs": {"act_type": "sigmoid"}, 
      "inputs": [[183, 0, 0]]
    }, 
    {
      "op": "elemwise_mul", 
      "name": "_mul15", 
      "inputs": [[184, 0, 0], [179, 2, 0]]
    }, 
    {
      "op": "elemwise_add", 
      "name": "_plus17", 
      "inputs": [[177, 2, 0], [185, 0, 0]]
    }, 
    {
      "op": "Activation", 
      "name": "gru_0t5__h_act", 
      "attrs": {"act_type": "tanh"}, 
      "inputs": [[186, 0, 0]]
    }, 
    {
      "op": "elemwise_mul", 
      "name": "_mul16", 
      "inputs": [[182, 0, 0], [187, 0, 0]]
    }, 
    {
      "op": "elemwise_mul", 
      "name": "_mul17", 
      "inputs": [[181, 0, 0], [160, 0, 0]]
    }, 
    {
      "op": "elemwise_add", 
      "name": "gru_0t5_out", 
      "inputs": [[188, 0, 0], [189, 0, 0]]
    }, 
    {
      "op": "FullyConnected", 
      "name": "gru_1t5__i2h", 
      "attrs": {"num_hidden": "768"}, 
      "inputs": [[190, 0, 0], [36, 0, 0], [37, 0, 0]]
    }, 
    {
      "op": "SliceChannel", 
      "name": "gru_1t5__i2h_slice", 
      "attrs": {"num_outputs": "3"}, 
      "inputs": [[191, 0, 0]]
    }, 
    {
      "op": "FullyConnected", 
      "name": "gru_1t5__h2h", 
      "attrs": {"num_hidden": "768"}, 
      "inputs": [[175, 0, 0], [41, 0, 0], [42, 0, 0]]
    }, 
    {
      "op": "SliceChannel", 
      "name": "gru_1t5__h2h_slice", 
      "attrs": {"num_outputs": "3"}, 
      "inputs": [[193, 0, 0]]
    }, 
    {
      "op": "elemwise_add", 
      "name": "_plus613", 
      "inputs": [[192, 1, 0], [194, 1, 0]]
    }, 
    {
      "op": "Activation", 
      "name": "gru_1t5__z_act", 
      "attrs": {"act_type": "sigmoid"}, 
      "inputs": [[195, 0, 0]]
    }, 
    {
      "op": "_rminus_scalar", 
      "name": "_rminusscalar204", 
      "attrs": {"scalar": "1.0"}, 
      "inputs": [[196, 0, 0]]
    }, 
    {
      "op": "elemwise_add", 
      "name": "_plus612", 
      "inputs": [[192, 0, 0], [194, 0, 0]]
    }, 
    {
      "op": "Activation", 
      "name": "gru_1t5__r_act", 
      "attrs": {"act_type": "sigmoid"}, 
      "inputs": [[198, 0, 0]]
    }, 
    {
      "op": "elemwise_mul", 
      "name": "_mul612", 
      "inputs": [[199, 0, 0], [194, 2, 0]]
    }, 
    {
      "op": "elemwise_add", 
      "name": "_plus614", 
      "inputs": [[192, 2, 0], [200, 0, 0]]
    }, 
    {
      "op": "Activation", 
      "name": "gru_1t5__h_act", 
      "attrs": {"act_type": "tanh"}, 
      "inputs": [[201, 0, 0]]
    }, 
    {
      "op": "elemwise_mul", 
      "name": "_mul613", 
      "inputs": [[197, 0, 0], [202, 0, 0]]
    }, 
    {
      "op": "elemwise_mul", 
      "name": "_mul614", 
      "inputs": [[196, 0, 0], [175, 0, 0]]
    }, 
    {
      "op": "elemwise_add", 
      "name": "gru_1t5_out", 
      "inputs": [[203, 0, 0], [204, 0, 0]]
    }, 
    {
      "op": "FullyConnected", 
      "name": "gru_0t6__i2h", 
      "attrs": {"num_hidden": "768"}, 
      "inputs": [[15, 6, 0], [16, 0, 0], [17, 0, 0]]
    }, 
    {
      "op": "SliceChannel", 
      "name": "gru_0t6__i2h_slice", 
      "attrs": {"num_outputs": "3"}, 
      "inputs": [[206, 0, 0]]
    }, 
    {
      "op": "FullyConnected", 
      "name": "gru_0t6__h2h", 
      "attrs": {"num_hidden": "768"}, 
      "inputs": [[190, 0, 0], [21, 0, 0], [22, 0, 0]]
    }, 
    {
      "op": "SliceChannel", 
      "name": "gru_0t6__h2h_slice", 
      "attrs": {"num_outputs": "3"}, 
      "inputs": [[208, 0, 0]]
    }, 
    {
      "op": "elemwise_add", 
      "name": "_plus19", 
      "inputs": [[207, 1, 0], [209, 1, 0]]
    }, 
    {
      "op": "Activation", 
      "name": "gru_0t6__z_act", 
      "attrs": {"act_type": "sigmoid"}, 
      "inputs": [[210, 0, 0]]
    }, 
    {
      "op": "_rminus_scalar", 
      "name": "_rminusscalar6", 
      "attrs": {"scalar": "1.0"}, 
      "inputs": [[211, 0, 0]]
    }, 
    {
      "op": "elemwise_add", 
      "name": "_plus18", 
      "inputs": [[207, 0, 0], [209, 0, 0]]
    }, 
    {
      "op": "Activation", 
      "name": "gru_0t6__r_act", 
      "attrs": {"act_type": "sigmoid"}, 
      "inputs": [[213, 0, 0]]
    }, 
    {
      "op": "elemwise_mul", 
      "name": "_mul18", 
      "inputs": [[214, 0, 0], [209, 2, 0]]
    }, 
    {
      "op": "elemwise_add", 
      "name": "_plus20", 
      "inputs": [[207, 2, 0], [215, 0, 0]]
    }, 
    {
      "op": "Activation", 
      "name": "gru_0t6__h_act", 
      "attrs": {"act_type": "tanh"}, 
      "inputs": [[216, 0, 0]]
    }, 
    {
      "op": "elemwise_mul", 
      "name": "_mul19", 
      "inputs": [[212, 0, 0], [217, 0, 0]]
    }, 
    {
      "op": "elemwise_mul", 
      "name": "_mul20", 
      "inputs": [[211, 0, 0], [190, 0, 0]]
    }, 
    {
      "op": "elemwise_add", 
      "name": "gru_0t6_out", 
      "inputs": [[218, 0, 0], [219, 0, 0]]
    }, 
    {
      "op": "FullyConnected", 
      "name": "gru_1t6__i2h", 
      "attrs": {"num_hidden": "768"}, 
      "inputs": [[220, 0, 0], [36, 0, 0], [37, 0, 0]]
    }, 
    {
      "op": "SliceChannel", 
      "name": "gru_1t6__i2h_slice", 
      "attrs": {"num_outputs": "3"}, 
      "inputs": [[221, 0, 0]]
    }, 
    {
      "op": "FullyConnected", 
      "name": "gru_1t6__h2h", 
      "attrs": {"num_hidden": "768"}, 
      "inputs": [[205, 0, 0], [41, 0, 0], [42, 0, 0]]
    }, 
    {
      "op": "SliceChannel", 
      "name": "gru_1t6__h2h_slice", 
      "attrs": {"num_outputs": "3"}, 
      "inputs": [[223, 0, 0]]
    }, 
    {
      "op": "elemwise_add", 
      "name": "_plus616", 
      "inputs": [[222, 1, 0], [224, 1, 0]]
    }, 
    {
      "op": "Activation", 
      "name": "gru_1t6__z_act", 
      "attrs": {"act_type": "sigmoid"}, 
      "inputs": [[225, 0, 0]]
    }, 
    {
      "op": "_rminus_scalar", 
      "name": "_rminusscalar205", 
      "attrs": {"scalar": "1.0"}, 
      "inputs": [[226, 0, 0]]
    }, 
    {
      "op": "elemwise_add", 
      "name": "_plus615", 
      "inputs": [[222, 0, 0], [224, 0, 0]]
    }, 
    {
      "op": "Activation", 
      "name": "gru_1t6__r_act", 
      "attrs": {"act_type": "sigmoid"}, 
      "inputs": [[228, 0, 0]]
    }, 
    {
      "op": "elemwise_mul", 
      "name": "_mul615", 
      "inputs": [[229, 0, 0], [224, 2, 0]]
    }, 
    {
      "op": "elemwise_add", 
      "name": "_plus617", 
      "inputs": [[222, 2, 0], [230, 0, 0]]
    }, 
    {
      "op": "Activation", 
      "name": "gru_1t6__h_act", 
      "attrs": {"act_type": "tanh"}, 
      "inputs": [[231, 0, 0]]
    }, 
    {
      "op": "elemwise_mul", 
      "name": "_mul616", 
      "inputs": [[227, 0, 0], [232, 0, 0]]
    }, 
    {
      "op": "elemwise_mul", 
      "name": "_mul617", 
      "inputs": [[226, 0, 0], [205, 0, 0]]
    }, 
    {
      "op": "elemwise_add", 
      "name": "gru_1t6_out", 
      "inputs": [[233, 0, 0], [234, 0, 0]]
    }, 
    {
      "op": "FullyConnected", 
      "name": "gru_0t7__i2h", 
      "attrs": {"num_hidden": "768"}, 
      "inputs": [[15, 7, 0], [16, 0, 0], [17, 0, 0]]
    }, 
    {
      "op": "SliceChannel", 
      "name": "gru_0t7__i2h_slice", 
      "attrs": {"num_outputs": "3"}, 
      "inputs": [[236, 0, 0]]
    }, 
    {
      "op": "FullyConnected", 
      "name": "gru_0t7__h2h", 
      "attrs": {"num_hidden": "768"}, 
      "inputs": [[220, 0, 0], [21, 0, 0], [22, 0, 0]]
    }, 
    {
      "op": "SliceChannel", 
      "name": "gru_0t7__h2h_slice", 
      "attrs": {"num_outputs": "3"}, 
      "inputs": [[238, 0, 0]]
    }, 
    {
      "op": "elemwise_add", 
      "name": "_plus22", 
      "inputs": [[237, 1, 0], [239, 1, 0]]
    }, 
    {
      "op": "Activation", 
      "name": "gru_0t7__z_act", 
      "attrs": {"act_type": "sigmoid"}, 
      "inputs": [[240, 0, 0]]
    }, 
    {
      "op": "_rminus_scalar", 
      "name": "_rminusscalar7", 
      "attrs": {"scalar": "1.0"}, 
      "inputs": [[241, 0, 0]]
    }, 
    {
      "op": "elemwise_add", 
      "name": "_plus21", 
      "inputs": [[237, 0, 0], [239, 0, 0]]
    }, 
    {
      "op": "Activation", 
      "name": "gru_0t7__r_act", 
      "attrs": {"act_type": "sigmoid"}, 
      "inputs": [[243, 0, 0]]
    }, 
    {
      "op": "elemwise_mul", 
      "name": "_mul21", 
      "inputs": [[244, 0, 0], [239, 2, 0]]
    }, 
    {
      "op": "elemwise_add", 
      "name": "_plus23", 
      "inputs": [[237, 2, 0], [245, 0, 0]]
    }, 
    {
      "op": "Activation", 
      "name": "gru_0t7__h_act", 
      "attrs": {"act_type": "tanh"}, 
      "inputs": [[246, 0, 0]]
    }, 
    {
      "op": "elemwise_mul", 
      "name": "_mul22", 
      "inputs": [[242, 0, 0], [247, 0, 0]]
    }, 
    {
      "op": "elemwise_mul", 
      "name": "_mul23", 
      "inputs": [[241, 0, 0], [220, 0, 0]]
    }, 
    {
      "op": "elemwise_add", 
      "name": "gru_0t7_out", 
      "inputs": [[248, 0, 0], [249, 0, 0]]
    }, 
    {
      "op": "FullyConnected", 
      "name": "gru_1t7__i2h", 
      "attrs": {"num_hidden": "768"}, 
      "inputs": [[250, 0, 0], [36, 0, 0], [37, 0, 0]]
    }, 
    {
      "op": "SliceChannel", 
      "name": "gru_1t7__i2h_slice", 
      "attrs": {"num_outputs": "3"}, 
      "inputs": [[251, 0, 0]]
    }, 
    {
      "op": "FullyConnected", 
      "name": "gru_1t7__h2h", 
      "attrs": {"num_hidden": "768"}, 
      "inputs": [[235, 0, 0], [41, 0, 0], [42, 0, 0]]
    }, 
    {
      "op": "SliceChannel", 
      "name": "gru_1t7__h2h_slice", 
      "attrs": {"num_outputs": "3"}, 
      "inputs": [[253, 0, 0]]
    }, 
    {
      "op": "elemwise_add", 
      "name": "_plus619", 
      "inputs": [[252, 1, 0], [254, 1, 0]]
    }, 
    {
      "op": "Activation", 
      "name": "gru_1t7__z_act", 
      "attrs": {"act_type": "sigmoid"}, 
      "inputs": [[255, 0, 0]]
    }, 
    {
      "op": "_rminus_scalar", 
      "name": "_rminusscalar206", 
      "attrs": {"scalar": "1.0"}, 
      "inputs": [[256, 0, 0]]
    }, 
    {
      "op": "elemwise_add", 
      "name": "_plus618", 
      "inputs": [[252, 0, 0], [254, 0, 0]]
    }, 
    {
      "op": "Activation", 
      "name": "gru_1t7__r_act", 
      "attrs": {"act_type": "sigmoid"}, 
      "inputs": [[258, 0, 0]]
    }, 
    {
      "op": "elemwise_mul", 
      "name": "_mul618", 
      "inputs": [[259, 0, 0], [254, 2, 0]]
    }, 
    {
      "op": "elemwise_add", 
      "name": "_plus620", 
      "inputs": [[252, 2, 0], [260, 0, 0]]
    }, 
    {
      "op": "Activation", 
      "name": "gru_1t7__h_act", 
      "attrs": {"act_type": "tanh"}, 
      "inputs": [[261, 0, 0]]
    }, 
    {
      "op": "elemwise_mul", 
      "name": "_mul619", 
      "inputs": [[257, 0, 0], [262, 0, 0]]
    }, 
    {
      "op": "elemwise_mul", 
      "name": "_mul620", 
      "inputs": [[256, 0, 0], [235, 0, 0]]
    }, 
    {
      "op": "elemwise_add", 
      "name": "gru_1t7_out", 
      "inputs": [[263, 0, 0], [264, 0, 0]]
    }, 
    {
      "op": "FullyConnected", 
      "name": "gru_0t8__i2h", 
      "attrs": {"num_hidden": "768"}, 
      "inputs": [[15, 8, 0], [16, 0, 0], [17, 0, 0]]
    }, 
    {
      "op": "SliceChannel", 
      "name": "gru_0t8__i2h_slice", 
      "attrs": {"num_outputs": "3"}, 
      "inputs": [[266, 0, 0]]
    }, 
    {
      "op": "FullyConnected", 
      "name": "gru_0t8__h2h", 
      "attrs": {"num_hidden": "768"}, 
      "inputs": [[250, 0, 0], [21, 0, 0], [22, 0, 0]]
    }, 
    {
      "op": "SliceChannel", 
      "name": "gru_0t8__h2h_slice", 
      "attrs": {"num_outputs": "3"}, 
      "inputs": [[268, 0, 0]]
    }, 
    {
      "op": "elemwise_add", 
      "name": "_plus25", 
      "inputs": [[267, 1, 0], [269, 1, 0]]
    }, 
    {
      "op": "Activation", 
      "name": "gru_0t8__z_act", 
      "attrs": {"act_type": "sigmoid"}, 
      "inputs": [[270, 0, 0]]
    }, 
    {
      "op": "_rminus_scalar", 
      "name": "_rminusscalar8", 
      "attrs": {"scalar": "1.0"}, 
      "inputs": [[271, 0, 0]]
    }, 
    {
      "op": "elemwise_add", 
      "name": "_plus24", 
      "inputs": [[267, 0, 0], [269, 0, 0]]
    }, 
    {
      "op": "Activation", 
      "name": "gru_0t8__r_act", 
      "attrs": {"act_type": "sigmoid"}, 
      "inputs": [[273, 0, 0]]
    }, 
    {
      "op": "elemwise_mul", 
      "name": "_mul24", 
      "inputs": [[274, 0, 0], [269, 2, 0]]
    }, 
    {
      "op": "elemwise_add", 
      "name": "_plus26", 
      "inputs": [[267, 2, 0], [275, 0, 0]]
    }, 
    {
      "op": "Activation", 
      "name": "gru_0t8__h_act", 
      "attrs": {"act_type": "tanh"}, 
      "inputs": [[276, 0, 0]]
    }, 
    {
      "op": "elemwise_mul", 
      "name": "_mul25", 
      "inputs": [[272, 0, 0], [277, 0, 0]]
    }, 
    {
      "op": "elemwise_mul", 
      "name": "_mul26", 
      "inputs": [[271, 0, 0], [250, 0, 0]]
    }, 
    {
      "op": "elemwise_add", 
      "name": "gru_0t8_out", 
      "inputs": [[278, 0, 0], [279, 0, 0]]
    }, 
    {
      "op": "FullyConnected", 
      "name": "gru_1t8__i2h", 
      "attrs": {"num_hidden": "768"}, 
      "inputs": [[280, 0, 0], [36, 0, 0], [37, 0, 0]]
    }, 
    {
      "op": "SliceChannel", 
      "name": "gru_1t8__i2h_slice", 
      "attrs": {"num_outputs": "3"}, 
      "inputs": [[281, 0, 0]]
    }, 
    {
      "op": "FullyConnected", 
      "name": "gru_1t8__h2h", 
      "attrs": {"num_hidden": "768"}, 
      "inputs": [[265, 0, 0], [41, 0, 0], [42, 0, 0]]
    }, 
    {
      "op": "SliceChannel", 
      "name": "gru_1t8__h2h_slice", 
      "attrs": {"num_outputs": "3"}, 
      "inputs": [[283, 0, 0]]
    }, 
    {
      "op": "elemwise_add", 
      "name": "_plus622", 
      "inputs": [[282, 1, 0], [284, 1, 0]]
    }, 
    {
      "op": "Activation", 
      "name": "gru_1t8__z_act", 
      "attrs": {"act_type": "sigmoid"}, 
      "inputs": [[285, 0, 0]]
    }, 
    {
      "op": "_rminus_scalar", 
      "name": "_rminusscalar207", 
      "attrs": {"scalar": "1.0"}, 
      "inputs": [[286, 0, 0]]
    }, 
    {
      "op": "elemwise_add", 
      "name": "_plus621", 
      "inputs": [[282, 0, 0], [284, 0, 0]]
    }, 
    {
      "op": "Activation", 
      "name": "gru_1t8__r_act", 
      "attrs": {"act_type": "sigmoid"}, 
      "inputs": [[288, 0, 0]]
    }, 
    {
      "op": "elemwise_mul", 
      "name": "_mul621", 
      "inputs": [[289, 0, 0], [284, 2, 0]]
    }, 
    {
      "op": "elemwise_add", 
      "name": "_plus623", 
      "inputs": [[282, 2, 0], [290, 0, 0]]
    }, 
    {
      "op": "Activation", 
      "name": "gru_1t8__h_act", 
      "attrs": {"act_type": "tanh"}, 
      "inputs": [[291, 0, 0]]
    }, 
    {
      "op": "elemwise_mul", 
      "name": "_mul622", 
      "inputs": [[287, 0, 0], [292, 0, 0]]
    }, 
    {
      "op": "elemwise_mul", 
      "name": "_mul623", 
      "inputs": [[286, 0, 0], [265, 0, 0]]
    }, 
    {
      "op": "elemwise_add", 
      "name": "gru_1t8_out", 
      "inputs": [[293, 0, 0], [294, 0, 0]]
    }, 
    {
      "op": "FullyConnected", 
      "name": "gru_0t9__i2h", 
      "attrs": {"num_hidden": "768"}, 
      "inputs": [[15, 9, 0], [16, 0, 0], [17, 0, 0]]
    }, 
    {
      "op": "SliceChannel", 
      "name": "gru_0t9__i2h_slice", 
      "attrs": {"num_outputs": "3"}, 
      "inputs": [[296, 0, 0]]
    }, 
    {
      "op": "FullyConnected", 
      "name": "gru_0t9__h2h", 
      "attrs": {"num_hidden": "768"}, 
      "inputs": [[280, 0, 0], [21, 0, 0], [22, 0, 0]]
    }, 
    {
      "op": "SliceChannel", 
      "name": "gru_0t9__h2h_slice", 
      "attrs": {"num_outputs": "3"}, 
      "inputs": [[298, 0, 0]]
    }, 
    {
      "op": "elemwise_add", 
      "name": "_plus28", 
      "inputs": [[297, 1, 0], [299, 1, 0]]
    }, 
    {
      "op": "Activation", 
      "name": "gru_0t9__z_act", 
      "attrs": {"act_type": "sigmoid"}, 
      "inputs": [[300, 0, 0]]
    }, 
    {
      "op": "_rminus_scalar", 
      "name": "_rminusscalar9", 
      "attrs": {"scalar": "1.0"}, 
      "inputs": [[301, 0, 0]]
    }, 
    {
      "op": "elemwise_add", 
      "name": "_plus27", 
      "inputs": [[297, 0, 0], [299, 0, 0]]
    }, 
    {
      "op": "Activation", 
      "name": "gru_0t9__r_act", 
      "attrs": {"act_type": "sigmoid"}, 
      "inputs": [[303, 0, 0]]
    }, 
    {
      "op": "elemwise_mul", 
      "name": "_mul27", 
      "inputs": [[304, 0, 0], [299, 2, 0]]
    }, 
    {
      "op": "elemwise_add", 
      "name": "_plus29", 
      "inputs": [[297, 2, 0], [305, 0, 0]]
    }, 
    {
      "op": "Activation", 
      "name": "gru_0t9__h_act", 
      "attrs": {"act_type": "tanh"}, 
      "inputs": [[306, 0, 0]]
    }, 
    {
      "op": "elemwise_mul", 
      "name": "_mul28", 
      "inputs": [[302, 0, 0], [307, 0, 0]]
    }, 
    {
      "op": "elemwise_mul", 
      "name": "_mul29", 
      "inputs": [[301, 0, 0], [280, 0, 0]]
    }, 
    {
      "op": "elemwise_add", 
      "name": "gru_0t9_out", 
      "inputs": [[308, 0, 0], [309, 0, 0]]
    }, 
    {
      "op": "FullyConnected", 
      "name": "gru_1t9__i2h", 
      "attrs": {"num_hidden": "768"}, 
      "inputs": [[310, 0, 0], [36, 0, 0], [37, 0, 0]]
    }, 
    {
      "op": "SliceChannel", 
      "name": "gru_1t9__i2h_slice", 
      "attrs": {"num_outputs": "3"}, 
      "inputs": [[311, 0, 0]]
    }, 
    {
      "op": "FullyConnected", 
      "name": "gru_1t9__h2h", 
      "attrs": {"num_hidden": "768"}, 
      "inputs": [[295, 0, 0], [41, 0, 0], [42, 0, 0]]
    }, 
    {
      "op": "SliceChannel", 
      "name": "gru_1t9__h2h_slice", 
      "attrs": {"num_outputs": "3"}, 
      "inputs": [[313, 0, 0]]
    }, 
    {
      "op": "elemwise_add", 
      "name": "_plus625", 
      "inputs": [[312, 1, 0], [314, 1, 0]]
    }, 
    {
      "op": "Activation", 
      "name": "gru_1t9__z_act", 
      "attrs": {"act_type": "sigmoid"}, 
      "inputs": [[315, 0, 0]]
    }, 
    {
      "op": "_rminus_scalar", 
      "name": "_rminusscalar208", 
      "attrs": {"scalar": "1.0"}, 
      "inputs": [[316, 0, 0]]
    }, 
    {
      "op": "elemwise_add", 
      "name": "_plus624", 
      "inputs": [[312, 0, 0], [314, 0, 0]]
    }, 
    {
      "op": "Activation", 
      "name": "gru_1t9__r_act", 
      "attrs": {"act_type": "sigmoid"}, 
      "inputs": [[318, 0, 0]]
    }, 
    {
      "op": "elemwise_mul", 
      "name": "_mul624", 
      "inputs": [[319, 0, 0], [314, 2, 0]]
    }, 
    {
      "op": "elemwise_add", 
      "name": "_plus626", 
      "inputs": [[312, 2, 0], [320, 0, 0]]
    }, 
    {
      "op": "Activation", 
      "name": "gru_1t9__h_act", 
      "attrs": {"act_type": "tanh"}, 
      "inputs": [[321, 0, 0]]
    }, 
    {
      "op": "elemwise_mul", 
      "name": "_mul625", 
      "inputs": [[317, 0, 0], [322, 0, 0]]
    }, 
    {
      "op": "elemwise_mul", 
      "name": "_mul626", 
      "inputs": [[316, 0, 0], [295, 0, 0]]
    }, 
    {
      "op": "elemwise_add", 
      "name": "gru_1t9_out", 
      "inputs": [[323, 0, 0], [324, 0, 0]]
    }, 
    {
      "op": "FullyConnected", 
      "name": "gru_0t10__i2h", 
      "attrs": {"num_hidden": "768"}, 
      "inputs": [[15, 10, 0], [16, 0, 0], [17, 0, 0]]
    }, 
    {
      "op": "SliceChannel", 
      "name": "gru_0t10__i2h_slice", 
      "attrs": {"num_outputs": "3"}, 
      "inputs": [[326, 0, 0]]
    }, 
    {
      "op": "FullyConnected", 
      "name": "gru_0t10__h2h", 
      "attrs": {"num_hidden": "768"}, 
      "inputs": [[310, 0, 0], [21, 0, 0], [22, 0, 0]]
    }, 
    {
      "op": "SliceChannel", 
      "name": "gru_0t10__h2h_slice", 
      "attrs": {"num_outputs": "3"}, 
      "inputs": [[328, 0, 0]]
    }, 
    {
      "op": "elemwise_add", 
      "name": "_plus31", 
      "inputs": [[327, 1, 0], [329, 1, 0]]
    }, 
    {
      "op": "Activation", 
      "name": "gru_0t10__z_act", 
      "attrs": {"act_type": "sigmoid"}, 
      "inputs": [[330, 0, 0]]
    }, 
    {
      "op": "_rminus_scalar", 
      "name": "_rminusscalar10", 
      "attrs": {"scalar": "1.0"}, 
      "inputs": [[331, 0, 0]]
    }, 
    {
      "op": "elemwise_add", 
      "name": "_plus30", 
      "inputs": [[327, 0, 0], [329, 0, 0]]
    }, 
    {
      "op": "Activation", 
      "name": "gru_0t10__r_act", 
      "attrs": {"act_type": "sigmoid"}, 
      "inputs": [[333, 0, 0]]
    }, 
    {
      "op": "elemwise_mul", 
      "name": "_mul30", 
      "inputs": [[334, 0, 0], [329, 2, 0]]
    }, 
    {
      "op": "elemwise_add", 
      "name": "_plus32", 
      "inputs": [[327, 2, 0], [335, 0, 0]]
    }, 
    {
      "op": "Activation", 
      "name": "gru_0t10__h_act", 
      "attrs": {"act_type": "tanh"}, 
      "inputs": [[336, 0, 0]]
    }, 
    {
      "op": "elemwise_mul", 
      "name": "_mul31", 
      "inputs": [[332, 0, 0], [337, 0, 0]]
    }, 
    {
      "op": "elemwise_mul", 
      "name": "_mul32", 
      "inputs": [[331, 0, 0], [310, 0, 0]]
    }, 
    {
      "op": "elemwise_add", 
      "name": "gru_0t10_out", 
      "inputs": [[338, 0, 0], [339, 0, 0]]
    }, 
    {
      "op": "FullyConnected", 
      "name": "gru_1t10__i2h", 
      "attrs": {"num_hidden": "768"}, 
      "inputs": [[340, 0, 0], [36, 0, 0], [37, 0, 0]]
    }, 
    {
      "op": "SliceChannel", 
      "name": "gru_1t10__i2h_slice", 
      "attrs": {"num_outputs": "3"}, 
      "inputs": [[341, 0, 0]]
    }, 
    {
      "op": "FullyConnected", 
      "name": "gru_1t10__h2h", 
      "attrs": {"num_hidden": "768"}, 
      "inputs": [[325, 0, 0], [41, 0, 0], [42, 0, 0]]
    }, 
    {
      "op": "SliceChannel", 
      "name": "gru_1t10__h2h_slice", 
      "attrs": {"num_outputs": "3"}, 
      "inputs": [[343, 0, 0]]
    }, 
    {
      "op": "elemwise_add", 
      "name": "_plus628", 
      "inputs": [[342, 1, 0], [344, 1, 0]]
    }, 
    {
      "op": "Activation", 
      "name": "gru_1t10__z_act", 
      "attrs": {"act_type": "sigmoid"}, 
      "inputs": [[345, 0, 0]]
    }, 
    {
      "op": "_rminus_scalar", 
      "name": "_rminusscalar209", 
      "attrs": {"scalar": "1.0"}, 
      "inputs": [[346, 0, 0]]
    }, 
    {
      "op": "elemwise_add", 
      "name": "_plus627", 
      "inputs": [[342, 0, 0], [344, 0, 0]]
    }, 
    {
      "op": "Activation", 
      "name": "gru_1t10__r_act", 
      "attrs": {"act_type": "sigmoid"}, 
      "inputs": [[348, 0, 0]]
    }, 
    {
      "op": "elemwise_mul", 
      "name": "_mul627", 
      "inputs": [[349, 0, 0], [344, 2, 0]]
    }, 
    {
      "op": "elemwise_add", 
      "name": "_plus629", 
      "inputs": [[342, 2, 0], [350, 0, 0]]
    }, 
    {
      "op": "Activation", 
      "name": "gru_1t10__h_act", 
      "attrs": {"act_type": "tanh"}, 
      "inputs": [[351, 0, 0]]
    }, 
    {
      "op": "elemwise_mul", 
      "name": "_mul628", 
      "inputs": [[347, 0, 0], [352, 0, 0]]
    }, 
    {
      "op": "elemwise_mul", 
      "name": "_mul629", 
      "inputs": [[346, 0, 0], [325, 0, 0]]
    }, 
    {
      "op": "elemwise_add", 
      "name": "gru_1t10_out", 
      "inputs": [[353, 0, 0], [354, 0, 0]]
    }, 
    {
      "op": "FullyConnected", 
      "name": "gru_0t11__i2h", 
      "attrs": {"num_hidden": "768"}, 
      "inputs": [[15, 11, 0], [16, 0, 0], [17, 0, 0]]
    }, 
    {
      "op": "SliceChannel", 
      "name": "gru_0t11__i2h_slice", 
      "attrs": {"num_outputs": "3"}, 
      "inputs": [[356, 0, 0]]
    }, 
    {
      "op": "FullyConnected", 
      "name": "gru_0t11__h2h", 
      "attrs": {"num_hidden": "768"}, 
      "inputs": [[340, 0, 0], [21, 0, 0], [22, 0, 0]]
    }, 
    {
      "op": "SliceChannel", 
      "name": "gru_0t11__h2h_slice", 
      "attrs": {"num_outputs": "3"}, 
      "inputs": [[358, 0, 0]]
    }, 
    {
      "op": "elemwise_add", 
      "name": "_plus34", 
      "inputs": [[357, 1, 0], [359, 1, 0]]
    }, 
    {
      "op": "Activation", 
      "name": "gru_0t11__z_act", 
      "attrs": {"act_type": "sigmoid"}, 
      "inputs": [[360, 0, 0]]
    }, 
    {
      "op": "_rminus_scalar", 
      "name": "_rminusscalar11", 
      "attrs": {"scalar": "1.0"}, 
      "inputs": [[361, 0, 0]]
    }, 
    {
      "op": "elemwise_add", 
      "name": "_plus33", 
      "inputs": [[357, 0, 0], [359, 0, 0]]
    }, 
    {
      "op": "Activation", 
      "name": "gru_0t11__r_act", 
      "attrs": {"act_type": "sigmoid"}, 
      "inputs": [[363, 0, 0]]
    }, 
    {
      "op": "elemwise_mul", 
      "name": "_mul33", 
      "inputs": [[364, 0, 0], [359, 2, 0]]
    }, 
    {
      "op": "elemwise_add", 
      "name": "_plus35", 
      "inputs": [[357, 2, 0], [365, 0, 0]]
    }, 
    {
      "op": "Activation", 
      "name": "gru_0t11__h_act", 
      "attrs": {"act_type": "tanh"}, 
      "inputs": [[366, 0, 0]]
    }, 
    {
      "op": "elemwise_mul", 
      "name": "_mul34", 
      "inputs": [[362, 0, 0], [367, 0, 0]]
    }, 
    {
      "op": "elemwise_mul", 
      "name": "_mul35", 
      "inputs": [[361, 0, 0], [340, 0, 0]]
    }, 
    {
      "op": "elemwise_add", 
      "name": "gru_0t11_out", 
      "inputs": [[368, 0, 0], [369, 0, 0]]
    }, 
    {
      "op": "FullyConnected", 
      "name": "gru_1t11__i2h", 
      "attrs": {"num_hidden": "768"}, 
      "inputs": [[370, 0, 0], [36, 0, 0], [37, 0, 0]]
    }, 
    {
      "op": "SliceChannel", 
      "name": "gru_1t11__i2h_slice", 
      "attrs": {"num_outputs": "3"}, 
      "inputs": [[371, 0, 0]]
    }, 
    {
      "op": "FullyConnected", 
      "name": "gru_1t11__h2h", 
      "attrs": {"num_hidden": "768"}, 
      "inputs": [[355, 0, 0], [41, 0, 0], [42, 0, 0]]
    }, 
    {
      "op": "SliceChannel", 
      "name": "gru_1t11__h2h_slice", 
      "attrs": {"num_outputs": "3"}, 
      "inputs": [[373, 0, 0]]
    }, 
    {
      "op": "elemwise_add", 
      "name": "_plus631", 
      "inputs": [[372, 1, 0], [374, 1, 0]]
    }, 
    {
      "op": "Activation", 
      "name": "gru_1t11__z_act", 
      "attrs": {"act_type": "sigmoid"}, 
      "inputs": [[375, 0, 0]]
    }, 
    {
      "op": "_rminus_scalar", 
      "name": "_rminusscalar210", 
      "attrs": {"scalar": "1.0"}, 
      "inputs": [[376, 0, 0]]
    }, 
    {
      "op": "elemwise_add", 
      "name": "_plus630", 
      "inputs": [[372, 0, 0], [374, 0, 0]]
    }, 
    {
      "op": "Activation", 
      "name": "gru_1t11__r_act", 
      "attrs": {"act_type": "sigmoid"}, 
      "inputs": [[378, 0, 0]]
    }, 
    {
      "op": "elemwise_mul", 
      "name": "_mul630", 
      "inputs": [[379, 0, 0], [374, 2, 0]]
    }, 
    {
      "op": "elemwise_add", 
      "name": "_plus632", 
      "inputs": [[372, 2, 0], [380, 0, 0]]
    }, 
    {
      "op": "Activation", 
      "name": "gru_1t11__h_act", 
      "attrs": {"act_type": "tanh"}, 
      "inputs": [[381, 0, 0]]
    }, 
    {
      "op": "elemwise_mul", 
      "name": "_mul631", 
      "inputs": [[377, 0, 0], [382, 0, 0]]
    }, 
    {
      "op": "elemwise_mul", 
      "name": "_mul632", 
      "inputs": [[376, 0, 0], [355, 0, 0]]
    }, 
    {
      "op": "elemwise_add", 
      "name": "gru_1t11_out", 
      "inputs": [[383, 0, 0], [384, 0, 0]]
    }, 
    {
      "op": "FullyConnected", 
      "name": "gru_0t12__i2h", 
      "attrs": {"num_hidden": "768"}, 
      "inputs": [[15, 12, 0], [16, 0, 0], [17, 0, 0]]
    }, 
    {
      "op": "SliceChannel", 
      "name": "gru_0t12__i2h_slice", 
      "attrs": {"num_outputs": "3"}, 
      "inputs": [[386, 0, 0]]
    }, 
    {
      "op": "FullyConnected", 
      "name": "gru_0t12__h2h", 
      "attrs": {"num_hidden": "768"}, 
      "inputs": [[370, 0, 0], [21, 0, 0], [22, 0, 0]]
    }, 
    {
      "op": "SliceChannel", 
      "name": "gru_0t12__h2h_slice", 
      "attrs": {"num_outputs": "3"}, 
      "inputs": [[388, 0, 0]]
    }, 
    {
      "op": "elemwise_add", 
      "name": "_plus37", 
      "inputs": [[387, 1, 0], [389, 1, 0]]
    }, 
    {
      "op": "Activation", 
      "name": "gru_0t12__z_act", 
      "attrs": {"act_type": "sigmoid"}, 
      "inputs": [[390, 0, 0]]
    }, 
    {
      "op": "_rminus_scalar", 
      "name": "_rminusscalar12", 
      "attrs": {"scalar": "1.0"}, 
      "inputs": [[391, 0, 0]]
    }, 
    {
      "op": "elemwise_add", 
      "name": "_plus36", 
      "inputs": [[387, 0, 0], [389, 0, 0]]
    }, 
    {
      "op": "Activation", 
      "name": "gru_0t12__r_act", 
      "attrs": {"act_type": "sigmoid"}, 
      "inputs": [[393, 0, 0]]
    }, 
    {
      "op": "elemwise_mul", 
      "name": "_mul36", 
      "inputs": [[394, 0, 0], [389, 2, 0]]
    }, 
    {
      "op": "elemwise_add", 
      "name": "_plus38", 
      "inputs": [[387, 2, 0], [395, 0, 0]]
    }, 
    {
      "op": "Activation", 
      "name": "gru_0t12__h_act", 
      "attrs": {"act_type": "tanh"}, 
      "inputs": [[396, 0, 0]]
    }, 
    {
      "op": "elemwise_mul", 
      "name": "_mul37", 
      "inputs": [[392, 0, 0], [397, 0, 0]]
    }, 
    {
      "op": "elemwise_mul", 
      "name": "_mul38", 
      "inputs": [[391, 0, 0], [370, 0, 0]]
    }, 
    {
      "op": "elemwise_add", 
      "name": "gru_0t12_out", 
      "inputs": [[398, 0, 0], [399, 0, 0]]
    }, 
    {
      "op": "FullyConnected", 
      "name": "gru_1t12__i2h", 
      "attrs": {"num_hidden": "768"}, 
      "inputs": [[400, 0, 0], [36, 0, 0], [37, 0, 0]]
    }, 
    {
      "op": "SliceChannel", 
      "name": "gru_1t12__i2h_slice", 
      "attrs": {"num_outputs": "3"}, 
      "inputs": [[401, 0, 0]]
    }, 
    {
      "op": "FullyConnected", 
      "name": "gru_1t12__h2h", 
      "attrs": {"num_hidden": "768"}, 
      "inputs": [[385, 0, 0], [41, 0, 0], [42, 0, 0]]
    }, 
    {
      "op": "SliceChannel", 
      "name": "gru_1t12__h2h_slice", 
      "attrs": {"num_outputs": "3"}, 
      "inputs": [[403, 0, 0]]
    }, 
    {
      "op": "elemwise_add", 
      "name": "_plus634", 
      "inputs": [[402, 1, 0], [404, 1, 0]]
    }, 
    {
      "op": "Activation", 
      "name": "gru_1t12__z_act", 
      "attrs": {"act_type": "sigmoid"}, 
      "inputs": [[405, 0, 0]]
    }, 
    {
      "op": "_rminus_scalar", 
      "name": "_rminusscalar211", 
      "attrs": {"scalar": "1.0"}, 
      "inputs": [[406, 0, 0]]
    }, 
    {
      "op": "elemwise_add", 
      "name": "_plus633", 
      "inputs": [[402, 0, 0], [404, 0, 0]]
    }, 
    {
      "op": "Activation", 
      "name": "gru_1t12__r_act", 
      "attrs": {"act_type": "sigmoid"}, 
      "inputs": [[408, 0, 0]]
    }, 
    {
      "op": "elemwise_mul", 
      "name": "_mul633", 
      "inputs": [[409, 0, 0], [404, 2, 0]]
    }, 
    {
      "op": "elemwise_add", 
      "name": "_plus635", 
      "inputs": [[402, 2, 0], [410, 0, 0]]
    }, 
    {
      "op": "Activation", 
      "name": "gru_1t12__h_act", 
      "attrs": {"act_type": "tanh"}, 
      "inputs": [[411, 0, 0]]
    }, 
    {
      "op": "elemwise_mul", 
      "name": "_mul634", 
      "inputs": [[407, 0, 0], [412, 0, 0]]
    }, 
    {
      "op": "elemwise_mul", 
      "name": "_mul635", 
      "inputs": [[406, 0, 0], [385, 0, 0]]
    }, 
    {
      "op": "elemwise_add", 
      "name": "gru_1t12_out", 
      "inputs": [[413, 0, 0], [414, 0, 0]]
    }, 
    {
      "op": "FullyConnected", 
      "name": "gru_0t13__i2h", 
      "attrs": {"num_hidden": "768"}, 
      "inputs": [[15, 13, 0], [16, 0, 0], [17, 0, 0]]
    }, 
    {
      "op": "SliceChannel", 
      "name": "gru_0t13__i2h_slice", 
      "attrs": {"num_outputs": "3"}, 
      "inputs": [[416, 0, 0]]
    }, 
    {
      "op": "FullyConnected", 
      "name": "gru_0t13__h2h", 
      "attrs": {"num_hidden": "768"}, 
      "inputs": [[400, 0, 0], [21, 0, 0], [22, 0, 0]]
    }, 
    {
      "op": "SliceChannel", 
      "name": "gru_0t13__h2h_slice", 
      "attrs": {"num_outputs": "3"}, 
      "inputs": [[418, 0, 0]]
    }, 
    {
      "op": "elemwise_add", 
      "name": "_plus40", 
      "inputs": [[417, 1, 0], [419, 1, 0]]
    }, 
    {
      "op": "Activation", 
      "name": "gru_0t13__z_act", 
      "attrs": {"act_type": "sigmoid"}, 
      "inputs": [[420, 0, 0]]
    }, 
    {
      "op": "_rminus_scalar", 
      "name": "_rminusscalar13", 
      "attrs": {"scalar": "1.0"}, 
      "inputs": [[421, 0, 0]]
    }, 
    {
      "op": "elemwise_add", 
      "name": "_plus39", 
      "inputs": [[417, 0, 0], [419, 0, 0]]
    }, 
    {
      "op": "Activation", 
      "name": "gru_0t13__r_act", 
      "attrs": {"act_type": "sigmoid"}, 
      "inputs": [[423, 0, 0]]
    }, 
    {
      "op": "elemwise_mul", 
      "name": "_mul39", 
      "inputs": [[424, 0, 0], [419, 2, 0]]
    }, 
    {
      "op": "elemwise_add", 
      "name": "_plus41", 
      "inputs": [[417, 2, 0], [425, 0, 0]]
    }, 
    {
      "op": "Activation", 
      "name": "gru_0t13__h_act", 
      "attrs": {"act_type": "tanh"}, 
      "inputs": [[426, 0, 0]]
    }, 
    {
      "op": "elemwise_mul", 
      "name": "_mul40", 
      "inputs": [[422, 0, 0], [427, 0, 0]]
    }, 
    {
      "op": "elemwise_mul", 
      "name": "_mul41", 
      "inputs": [[421, 0, 0], [400, 0, 0]]
    }, 
    {
      "op": "elemwise_add", 
      "name": "gru_0t13_out", 
      "inputs": [[428, 0, 0], [429, 0, 0]]
    }, 
    {
      "op": "FullyConnected", 
      "name": "gru_1t13__i2h", 
      "attrs": {"num_hidden": "768"}, 
      "inputs": [[430, 0, 0], [36, 0, 0], [37, 0, 0]]
    }, 
    {
      "op": "SliceChannel", 
      "name": "gru_1t13__i2h_slice", 
      "attrs": {"num_outputs": "3"}, 
      "inputs": [[431, 0, 0]]
    }, 
    {
      "op": "FullyConnected", 
      "name": "gru_1t13__h2h", 
      "attrs": {"num_hidden": "768"}, 
      "inputs": [[415, 0, 0], [41, 0, 0], [42, 0, 0]]
    }, 
    {
      "op": "SliceChannel", 
      "name": "gru_1t13__h2h_slice", 
      "attrs": {"num_outputs": "3"}, 
      "inputs": [[433, 0, 0]]
    }, 
    {
      "op": "elemwise_add", 
      "name": "_plus637", 
      "inputs": [[432, 1, 0], [434, 1, 0]]
    }, 
    {
      "op": "Activation", 
      "name": "gru_1t13__z_act", 
      "attrs": {"act_type": "sigmoid"}, 
      "inputs": [[435, 0, 0]]
    }, 
    {
      "op": "_rminus_scalar", 
      "name": "_rminusscalar212", 
      "attrs": {"scalar": "1.0"}, 
      "inputs": [[436, 0, 0]]
    }, 
    {
      "op": "elemwise_add", 
      "name": "_plus636", 
      "inputs": [[432, 0, 0], [434, 0, 0]]
    }, 
    {
      "op": "Activation", 
      "name": "gru_1t13__r_act", 
      "attrs": {"act_type": "sigmoid"}, 
      "inputs": [[438, 0, 0]]
    }, 
    {
      "op": "elemwise_mul", 
      "name": "_mul636", 
      "inputs": [[439, 0, 0], [434, 2, 0]]
    }, 
    {
      "op": "elemwise_add", 
      "name": "_plus638", 
      "inputs": [[432, 2, 0], [440, 0, 0]]
    }, 
    {
      "op": "Activation", 
      "name": "gru_1t13__h_act", 
      "attrs": {"act_type": "tanh"}, 
      "inputs": [[441, 0, 0]]
    }, 
    {
      "op": "elemwise_mul", 
      "name": "_mul637", 
      "inputs": [[437, 0, 0], [442, 0, 0]]
    }, 
    {
      "op": "elemwise_mul", 
      "name": "_mul638", 
      "inputs": [[436, 0, 0], [415, 0, 0]]
    }, 
    {
      "op": "elemwise_add", 
      "name": "gru_1t13_out", 
      "inputs": [[443, 0, 0], [444, 0, 0]]
    }, 
    {
      "op": "FullyConnected", 
      "name": "gru_0t14__i2h", 
      "attrs": {"num_hidden": "768"}, 
      "inputs": [[15, 14, 0], [16, 0, 0], [17, 0, 0]]
    }, 
    {
      "op": "SliceChannel", 
      "name": "gru_0t14__i2h_slice", 
      "attrs": {"num_outputs": "3"}, 
      "inputs": [[446, 0, 0]]
    }, 
    {
      "op": "FullyConnected", 
      "name": "gru_0t14__h2h", 
      "attrs": {"num_hidden": "768"}, 
      "inputs": [[430, 0, 0], [21, 0, 0], [22, 0, 0]]
    }, 
    {
      "op": "SliceChannel", 
      "name": "gru_0t14__h2h_slice", 
      "attrs": {"num_outputs": "3"}, 
      "inputs": [[448, 0, 0]]
    }, 
    {
      "op": "elemwise_add", 
      "name": "_plus43", 
      "inputs": [[447, 1, 0], [449, 1, 0]]
    }, 
    {
      "op": "Activation", 
      "name": "gru_0t14__z_act", 
      "attrs": {"act_type": "sigmoid"}, 
      "inputs": [[450, 0, 0]]
    }, 
    {
      "op": "_rminus_scalar", 
      "name": "_rminusscalar14", 
      "attrs": {"scalar": "1.0"}, 
      "inputs": [[451, 0, 0]]
    }, 
    {
      "op": "elemwise_add", 
      "name": "_plus42", 
      "inputs": [[447, 0, 0], [449, 0, 0]]
    }, 
    {
      "op": "Activation", 
      "name": "gru_0t14__r_act", 
      "attrs": {"act_type": "sigmoid"}, 
      "inputs": [[453, 0, 0]]
    }, 
    {
      "op": "elemwise_mul", 
      "name": "_mul42", 
      "inputs": [[454, 0, 0], [449, 2, 0]]
    }, 
    {
      "op": "elemwise_add", 
      "name": "_plus44", 
      "inputs": [[447, 2, 0], [455, 0, 0]]
    }, 
    {
      "op": "Activation", 
      "name": "gru_0t14__h_act", 
      "attrs": {"act_type": "tanh"}, 
      "inputs": [[456, 0, 0]]
    }, 
    {
      "op": "elemwise_mul", 
      "name": "_mul43", 
      "inputs": [[452, 0, 0], [457, 0, 0]]
    }, 
    {
      "op": "elemwise_mul", 
      "name": "_mul44", 
      "inputs": [[451, 0, 0], [430, 0, 0]]
    }, 
    {
      "op": "elemwise_add", 
      "name": "gru_0t14_out", 
      "inputs": [[458, 0, 0], [459, 0, 0]]
    }, 
    {
      "op": "FullyConnected", 
      "name": "gru_1t14__i2h", 
      "attrs": {"num_hidden": "768"}, 
      "inputs": [[460, 0, 0], [36, 0, 0], [37, 0, 0]]
    }, 
    {
      "op": "SliceChannel", 
      "name": "gru_1t14__i2h_slice", 
      "attrs": {"num_outputs": "3"}, 
      "inputs": [[461, 0, 0]]
    }, 
    {
      "op": "FullyConnected", 
      "name": "gru_1t14__h2h", 
      "attrs": {"num_hidden": "768"}, 
      "inputs": [[445, 0, 0], [41, 0, 0], [42, 0, 0]]
    }, 
    {
      "op": "SliceChannel", 
      "name": "gru_1t14__h2h_slice", 
      "attrs": {"num_outputs": "3"}, 
      "inputs": [[463, 0, 0]]
    }, 
    {
      "op": "elemwise_add", 
      "name": "_plus640", 
      "inputs": [[462, 1, 0], [464, 1, 0]]
    }, 
    {
      "op": "Activation", 
      "name": "gru_1t14__z_act", 
      "attrs": {"act_type": "sigmoid"}, 
      "inputs": [[465, 0, 0]]
    }, 
    {
      "op": "_rminus_scalar", 
      "name": "_rminusscalar213", 
      "attrs": {"scalar": "1.0"}, 
      "inputs": [[466, 0, 0]]
    }, 
    {
      "op": "elemwise_add", 
      "name": "_plus639", 
      "inputs": [[462, 0, 0], [464, 0, 0]]
    }, 
    {
      "op": "Activation", 
      "name": "gru_1t14__r_act", 
      "attrs": {"act_type": "sigmoid"}, 
      "inputs": [[468, 0, 0]]
    }, 
    {
      "op": "elemwise_mul", 
      "name": "_mul639", 
      "inputs": [[469, 0, 0], [464, 2, 0]]
    }, 
    {
      "op": "elemwise_add", 
      "name": "_plus641", 
      "inputs": [[462, 2, 0], [470, 0, 0]]
    }, 
    {
      "op": "Activation", 
      "name": "gru_1t14__h_act", 
      "attrs": {"act_type": "tanh"}, 
      "inputs": [[471, 0, 0]]
    }, 
    {
      "op": "elemwise_mul", 
      "name": "_mul640", 
      "inputs": [[467, 0, 0], [472, 0, 0]]
    }, 
    {
      "op": "elemwise_mul", 
      "name": "_mul641", 
      "inputs": [[466, 0, 0], [445, 0, 0]]
    }, 
    {
      "op": "elemwise_add", 
      "name": "gru_1t14_out", 
      "inputs": [[473, 0, 0], [474, 0, 0]]
    }, 
    {
      "op": "FullyConnected", 
      "name": "gru_0t15__i2h", 
      "attrs": {"num_hidden": "768"}, 
      "inputs": [[15, 15, 0], [16, 0, 0], [17, 0, 0]]
    }, 
    {
      "op": "SliceChannel", 
      "name": "gru_0t15__i2h_slice", 
      "attrs": {"num_outputs": "3"}, 
      "inputs": [[476, 0, 0]]
    }, 
    {
      "op": "FullyConnected", 
      "name": "gru_0t15__h2h", 
      "attrs": {"num_hidden": "768"}, 
      "inputs": [[460, 0, 0], [21, 0, 0], [22, 0, 0]]
    }, 
    {
      "op": "SliceChannel", 
      "name": "gru_0t15__h2h_slice", 
      "attrs": {"num_outputs": "3"}, 
      "inputs": [[478, 0, 0]]
    }, 
    {
      "op": "elemwise_add", 
      "name": "_plus46", 
      "inputs": [[477, 1, 0], [479, 1, 0]]
    }, 
    {
      "op": "Activation", 
      "name": "gru_0t15__z_act", 
      "attrs": {"act_type": "sigmoid"}, 
      "inputs": [[480, 0, 0]]
    }, 
    {
      "op": "_rminus_scalar", 
      "name": "_rminusscalar15", 
      "attrs": {"scalar": "1.0"}, 
      "inputs": [[481, 0, 0]]
    }, 
    {
      "op": "elemwise_add", 
      "name": "_plus45", 
      "inputs": [[477, 0, 0], [479, 0, 0]]
    }, 
    {
      "op": "Activation", 
      "name": "gru_0t15__r_act", 
      "attrs": {"act_type": "sigmoid"}, 
      "inputs": [[483, 0, 0]]
    }, 
    {
      "op": "elemwise_mul", 
      "name": "_mul45", 
      "inputs": [[484, 0, 0], [479, 2, 0]]
    }, 
    {
      "op": "elemwise_add", 
      "name": "_plus47", 
      "inputs": [[477, 2, 0], [485, 0, 0]]
    }, 
    {
      "op": "Activation", 
      "name": "gru_0t15__h_act", 
      "attrs": {"act_type": "tanh"}, 
      "inputs": [[486, 0, 0]]
    }, 
    {
      "op": "elemwise_mul", 
      "name": "_mul46", 
      "inputs": [[482, 0, 0], [487, 0, 0]]
    }, 
    {
      "op": "elemwise_mul", 
      "name": "_mul47", 
      "inputs": [[481, 0, 0], [460, 0, 0]]
    }, 
    {
      "op": "elemwise_add", 
      "name": "gru_0t15_out", 
      "inputs": [[488, 0, 0], [489, 0, 0]]
    }, 
    {
      "op": "FullyConnected", 
      "name": "gru_1t15__i2h", 
      "attrs": {"num_hidden": "768"}, 
      "inputs": [[490, 0, 0], [36, 0, 0], [37, 0, 0]]
    }, 
    {
      "op": "SliceChannel", 
      "name": "gru_1t15__i2h_slice", 
      "attrs": {"num_outputs": "3"}, 
      "inputs": [[491, 0, 0]]
    }, 
    {
      "op": "FullyConnected", 
      "name": "gru_1t15__h2h", 
      "attrs": {"num_hidden": "768"}, 
      "inputs": [[475, 0, 0], [41, 0, 0], [42, 0, 0]]
    }, 
    {
      "op": "SliceChannel", 
      "name": "gru_1t15__h2h_slice", 
      "attrs": {"num_outputs": "3"}, 
      "inputs": [[493, 0, 0]]
    }, 
    {
      "op": "elemwise_add", 
      "name": "_plus643", 
      "inputs": [[492, 1, 0], [494, 1, 0]]
    }, 
    {
      "op": "Activation", 
      "name": "gru_1t15__z_act", 
      "attrs": {"act_type": "sigmoid"}, 
      "inputs": [[495, 0, 0]]
    }, 
    {
      "op": "_rminus_scalar", 
      "name": "_rminusscalar214", 
      "attrs": {"scalar": "1.0"}, 
      "inputs": [[496, 0, 0]]
    }, 
    {
      "op": "elemwise_add", 
      "name": "_plus642", 
      "inputs": [[492, 0, 0], [494, 0, 0]]
    }, 
    {
      "op": "Activation", 
      "name": "gru_1t15__r_act", 
      "attrs": {"act_type": "sigmoid"}, 
      "inputs": [[498, 0, 0]]
    }, 
    {
      "op": "elemwise_mul", 
      "name": "_mul642", 
      "inputs": [[499, 0, 0], [494, 2, 0]]
    }, 
    {
      "op": "elemwise_add", 
      "name": "_plus644", 
      "inputs": [[492, 2, 0], [500, 0, 0]]
    }, 
    {
      "op": "Activation", 
      "name": "gru_1t15__h_act", 
      "attrs": {"act_type": "tanh"}, 
      "inputs": [[501, 0, 0]]
    }, 
    {
      "op": "elemwise_mul", 
      "name": "_mul643", 
      "inputs": [[497, 0, 0], [502, 0, 0]]
    }, 
    {
      "op": "elemwise_mul", 
      "name": "_mul644", 
      "inputs": [[496, 0, 0], [475, 0, 0]]
    }, 
    {
      "op": "elemwise_add", 
      "name": "gru_1t15_out", 
      "inputs": [[503, 0, 0], [504, 0, 0]]
    }, 
    {
      "op": "FullyConnected", 
      "name": "gru_0t16__i2h", 
      "attrs": {"num_hidden": "768"}, 
      "inputs": [[15, 16, 0], [16, 0, 0], [17, 0, 0]]
    }, 
    {
      "op": "SliceChannel", 
      "name": "gru_0t16__i2h_slice", 
      "attrs": {"num_outputs": "3"}, 
      "inputs": [[506, 0, 0]]
    }, 
    {
      "op": "FullyConnected", 
      "name": "gru_0t16__h2h", 
      "attrs": {"num_hidden": "768"}, 
      "inputs": [[490, 0, 0], [21, 0, 0], [22, 0, 0]]
    }, 
    {
      "op": "SliceChannel", 
      "name": "gru_0t16__h2h_slice", 
      "attrs": {"num_outputs": "3"}, 
      "inputs": [[508, 0, 0]]
    }, 
    {
      "op": "elemwise_add", 
      "name": "_plus49", 
      "inputs": [[507, 1, 0], [509, 1, 0]]
    }, 
    {
      "op": "Activation", 
      "name": "gru_0t16__z_act", 
      "attrs": {"act_type": "sigmoid"}, 
      "inputs": [[510, 0, 0]]
    }, 
    {
      "op": "_rminus_scalar", 
      "name": "_rminusscalar16", 
      "attrs": {"scalar": "1.0"}, 
      "inputs": [[511, 0, 0]]
    }, 
    {
      "op": "elemwise_add", 
      "name": "_plus48", 
      "inputs": [[507, 0, 0], [509, 0, 0]]
    }, 
    {
      "op": "Activation", 
      "name": "gru_0t16__r_act", 
      "attrs": {"act_type": "sigmoid"}, 
      "inputs": [[513, 0, 0]]
    }, 
    {
      "op": "elemwise_mul", 
      "name": "_mul48", 
      "inputs": [[514, 0, 0], [509, 2, 0]]
    }, 
    {
      "op": "elemwise_add", 
      "name": "_plus50", 
      "inputs": [[507, 2, 0], [515, 0, 0]]
    }, 
    {
      "op": "Activation", 
      "name": "gru_0t16__h_act", 
      "attrs": {"act_type": "tanh"}, 
      "inputs": [[516, 0, 0]]
    }, 
    {
      "op": "elemwise_mul", 
      "name": "_mul49", 
      "inputs": [[512, 0, 0], [517, 0, 0]]
    }, 
    {
      "op": "elemwise_mul", 
      "name": "_mul50", 
      "inputs": [[511, 0, 0], [490, 0, 0]]
    }, 
    {
      "op": "elemwise_add", 
      "name": "gru_0t16_out", 
      "inputs": [[518, 0, 0], [519, 0, 0]]
    }, 
    {
      "op": "FullyConnected", 
      "name": "gru_1t16__i2h", 
      "attrs": {"num_hidden": "768"}, 
      "inputs": [[520, 0, 0], [36, 0, 0], [37, 0, 0]]
    }, 
    {
      "op": "SliceChannel", 
      "name": "gru_1t16__i2h_slice", 
      "attrs": {"num_outputs": "3"}, 
      "inputs": [[521, 0, 0]]
    }, 
    {
      "op": "FullyConnected", 
      "name": "gru_1t16__h2h", 
      "attrs": {"num_hidden": "768"}, 
      "inputs": [[505, 0, 0], [41, 0, 0], [42, 0, 0]]
    }, 
    {
      "op": "SliceChannel", 
      "name": "gru_1t16__h2h_slice", 
      "attrs": {"num_outputs": "3"}, 
      "inputs": [[523, 0, 0]]
    }, 
    {
      "op": "elemwise_add", 
      "name": "_plus646", 
      "inputs": [[522, 1, 0], [524, 1, 0]]
    }, 
    {
      "op": "Activation", 
      "name": "gru_1t16__z_act", 
      "attrs": {"act_type": "sigmoid"}, 
      "inputs": [[525, 0, 0]]
    }, 
    {
      "op": "_rminus_scalar", 
      "name": "_rminusscalar215", 
      "attrs": {"scalar": "1.0"}, 
      "inputs": [[526, 0, 0]]
    }, 
    {
      "op": "elemwise_add", 
      "name": "_plus645", 
      "inputs": [[522, 0, 0], [524, 0, 0]]
    }, 
    {
      "op": "Activation", 
      "name": "gru_1t16__r_act", 
      "attrs": {"act_type": "sigmoid"}, 
      "inputs": [[528, 0, 0]]
    }, 
    {
      "op": "elemwise_mul", 
      "name": "_mul645", 
      "inputs": [[529, 0, 0], [524, 2, 0]]
    }, 
    {
      "op": "elemwise_add", 
      "name": "_plus647", 
      "inputs": [[522, 2, 0], [530, 0, 0]]
    }, 
    {
      "op": "Activation", 
      "name": "gru_1t16__h_act", 
      "attrs": {"act_type": "tanh"}, 
      "inputs": [[531, 0, 0]]
    }, 
    {
      "op": "elemwise_mul", 
      "name": "_mul646", 
      "inputs": [[527, 0, 0], [532, 0, 0]]
    }, 
    {
      "op": "elemwise_mul", 
      "name": "_mul647", 
      "inputs": [[526, 0, 0], [505, 0, 0]]
    }, 
    {
      "op": "elemwise_add", 
      "name": "gru_1t16_out", 
      "inputs": [[533, 0, 0], [534, 0, 0]]
    }, 
    {
      "op": "FullyConnected", 
      "name": "gru_0t17__i2h", 
      "attrs": {"num_hidden": "768"}, 
      "inputs": [[15, 17, 0], [16, 0, 0], [17, 0, 0]]
    }, 
    {
      "op": "SliceChannel", 
      "name": "gru_0t17__i2h_slice", 
      "attrs": {"num_outputs": "3"}, 
      "inputs": [[536, 0, 0]]
    }, 
    {
      "op": "FullyConnected", 
      "name": "gru_0t17__h2h", 
      "attrs": {"num_hidden": "768"}, 
      "inputs": [[520, 0, 0], [21, 0, 0], [22, 0, 0]]
    }, 
    {
      "op": "SliceChannel", 
      "name": "gru_0t17__h2h_slice", 
      "attrs": {"num_outputs": "3"}, 
      "inputs": [[538, 0, 0]]
    }, 
    {
      "op": "elemwise_add", 
      "name": "_plus52", 
      "inputs": [[537, 1, 0], [539, 1, 0]]
    }, 
    {
      "op": "Activation", 
      "name": "gru_0t17__z_act", 
      "attrs": {"act_type": "sigmoid"}, 
      "inputs": [[540, 0, 0]]
    }, 
    {
      "op": "_rminus_scalar", 
      "name": "_rminusscalar17", 
      "attrs": {"scalar": "1.0"}, 
      "inputs": [[541, 0, 0]]
    }, 
    {
      "op": "elemwise_add", 
      "name": "_plus51", 
      "inputs": [[537, 0, 0], [539, 0, 0]]
    }, 
    {
      "op": "Activation", 
      "name": "gru_0t17__r_act", 
      "attrs": {"act_type": "sigmoid"}, 
      "inputs": [[543, 0, 0]]
    }, 
    {
      "op": "elemwise_mul", 
      "name": "_mul51", 
      "inputs": [[544, 0, 0], [539, 2, 0]]
    }, 
    {
      "op": "elemwise_add", 
      "name": "_plus53", 
      "inputs": [[537, 2, 0], [545, 0, 0]]
    }, 
    {
      "op": "Activation", 
      "name": "gru_0t17__h_act", 
      "attrs": {"act_type": "tanh"}, 
      "inputs": [[546, 0, 0]]
    }, 
    {
      "op": "elemwise_mul", 
      "name": "_mul52", 
      "inputs": [[542, 0, 0], [547, 0, 0]]
    }, 
    {
      "op": "elemwise_mul", 
      "name": "_mul53", 
      "inputs": [[541, 0, 0], [520, 0, 0]]
    }, 
    {
      "op": "elemwise_add", 
      "name": "gru_0t17_out", 
      "inputs": [[548, 0, 0], [549, 0, 0]]
    }, 
    {
      "op": "FullyConnected", 
      "name": "gru_1t17__i2h", 
      "attrs": {"num_hidden": "768"}, 
      "inputs": [[550, 0, 0], [36, 0, 0], [37, 0, 0]]
    }, 
    {
      "op": "SliceChannel", 
      "name": "gru_1t17__i2h_slice", 
      "attrs": {"num_outputs": "3"}, 
      "inputs": [[551, 0, 0]]
    }, 
    {
      "op": "FullyConnected", 
      "name": "gru_1t17__h2h", 
      "attrs": {"num_hidden": "768"}, 
      "inputs": [[535, 0, 0], [41, 0, 0], [42, 0, 0]]
    }, 
    {
      "op": "SliceChannel", 
      "name": "gru_1t17__h2h_slice", 
      "attrs": {"num_outputs": "3"}, 
      "inputs": [[553, 0, 0]]
    }, 
    {
      "op": "elemwise_add", 
      "name": "_plus649", 
      "inputs": [[552, 1, 0], [554, 1, 0]]
    }, 
    {
      "op": "Activation", 
      "name": "gru_1t17__z_act", 
      "attrs": {"act_type": "sigmoid"}, 
      "inputs": [[555, 0, 0]]
    }, 
    {
      "op": "_rminus_scalar", 
      "name": "_rminusscalar216", 
      "attrs": {"scalar": "1.0"}, 
      "inputs": [[556, 0, 0]]
    }, 
    {
      "op": "elemwise_add", 
      "name": "_plus648", 
      "inputs": [[552, 0, 0], [554, 0, 0]]
    }, 
    {
      "op": "Activation", 
      "name": "gru_1t17__r_act", 
      "attrs": {"act_type": "sigmoid"}, 
      "inputs": [[558, 0, 0]]
    }, 
    {
      "op": "elemwise_mul", 
      "name": "_mul648", 
      "inputs": [[559, 0, 0], [554, 2, 0]]
    }, 
    {
      "op": "elemwise_add", 
      "name": "_plus650", 
      "inputs": [[552, 2, 0], [560, 0, 0]]
    }, 
    {
      "op": "Activation", 
      "name": "gru_1t17__h_act", 
      "attrs": {"act_type": "tanh"}, 
      "inputs": [[561, 0, 0]]
    }, 
    {
      "op": "elemwise_mul", 
      "name": "_mul649", 
      "inputs": [[557, 0, 0], [562, 0, 0]]
    }, 
    {
      "op": "elemwise_mul", 
      "name": "_mul650", 
      "inputs": [[556, 0, 0], [535, 0, 0]]
    }, 
    {
      "op": "elemwise_add", 
      "name": "gru_1t17_out", 
      "inputs": [[563, 0, 0], [564, 0, 0]]
    }, 
    {
      "op": "FullyConnected", 
      "name": "gru_0t18__i2h", 
      "attrs": {"num_hidden": "768"}, 
      "inputs": [[15, 18, 0], [16, 0, 0], [17, 0, 0]]
    }, 
    {
      "op": "SliceChannel", 
      "name": "gru_0t18__i2h_slice", 
      "attrs": {"num_outputs": "3"}, 
      "inputs": [[566, 0, 0]]
    }, 
    {
      "op": "FullyConnected", 
      "name": "gru_0t18__h2h", 
      "attrs": {"num_hidden": "768"}, 
      "inputs": [[550, 0, 0], [21, 0, 0], [22, 0, 0]]
    }, 
    {
      "op": "SliceChannel", 
      "name": "gru_0t18__h2h_slice", 
      "attrs": {"num_outputs": "3"}, 
      "inputs": [[568, 0, 0]]
    }, 
    {
      "op": "elemwise_add", 
      "name": "_plus55", 
      "inputs": [[567, 1, 0], [569, 1, 0]]
    }, 
    {
      "op": "Activation", 
      "name": "gru_0t18__z_act", 
      "attrs": {"act_type": "sigmoid"}, 
      "inputs": [[570, 0, 0]]
    }, 
    {
      "op": "_rminus_scalar", 
      "name": "_rminusscalar18", 
      "attrs": {"scalar": "1.0"}, 
      "inputs": [[571, 0, 0]]
    }, 
    {
      "op": "elemwise_add", 
      "name": "_plus54", 
      "inputs": [[567, 0, 0], [569, 0, 0]]
    }, 
    {
      "op": "Activation", 
      "name": "gru_0t18__r_act", 
      "attrs": {"act_type": "sigmoid"}, 
      "inputs": [[573, 0, 0]]
    }, 
    {
      "op": "elemwise_mul", 
      "name": "_mul54", 
      "inputs": [[574, 0, 0], [569, 2, 0]]
    }, 
    {
      "op": "elemwise_add", 
      "name": "_plus56", 
      "inputs": [[567, 2, 0], [575, 0, 0]]
    }, 
    {
      "op": "Activation", 
      "name": "gru_0t18__h_act", 
      "attrs": {"act_type": "tanh"}, 
      "inputs": [[576, 0, 0]]
    }, 
    {
      "op": "elemwise_mul", 
      "name": "_mul55", 
      "inputs": [[572, 0, 0], [577, 0, 0]]
    }, 
    {
      "op": "elemwise_mul", 
      "name": "_mul56", 
      "inputs": [[571, 0, 0], [550, 0, 0]]
    }, 
    {
      "op": "elemwise_add", 
      "name": "gru_0t18_out", 
      "inputs": [[578, 0, 0], [579, 0, 0]]
    }, 
    {
      "op": "FullyConnected", 
      "name": "gru_1t18__i2h", 
      "attrs": {"num_hidden": "768"}, 
      "inputs": [[580, 0, 0], [36, 0, 0], [37, 0, 0]]
    }, 
    {
      "op": "SliceChannel", 
      "name": "gru_1t18__i2h_slice", 
      "attrs": {"num_outputs": "3"}, 
      "inputs": [[581, 0, 0]]
    }, 
    {
      "op": "FullyConnected", 
      "name": "gru_1t18__h2h", 
      "attrs": {"num_hidden": "768"}, 
      "inputs": [[565, 0, 0], [41, 0, 0], [42, 0, 0]]
    }, 
    {
      "op": "SliceChannel", 
      "name": "gru_1t18__h2h_slice", 
      "attrs": {"num_outputs": "3"}, 
      "inputs": [[583, 0, 0]]
    }, 
    {
      "op": "elemwise_add", 
      "name": "_plus652", 
      "inputs": [[582, 1, 0], [584, 1, 0]]
    }, 
    {
      "op": "Activation", 
      "name": "gru_1t18__z_act", 
      "attrs": {"act_type": "sigmoid"}, 
      "inputs": [[585, 0, 0]]
    }, 
    {
      "op": "_rminus_scalar", 
      "name": "_rminusscalar217", 
      "attrs": {"scalar": "1.0"}, 
      "inputs": [[586, 0, 0]]
    }, 
    {
      "op": "elemwise_add", 
      "name": "_plus651", 
      "inputs": [[582, 0, 0], [584, 0, 0]]
    }, 
    {
      "op": "Activation", 
      "name": "gru_1t18__r_act", 
      "attrs": {"act_type": "sigmoid"}, 
      "inputs": [[588, 0, 0]]
    }, 
    {
      "op": "elemwise_mul", 
      "name": "_mul651", 
      "inputs": [[589, 0, 0], [584, 2, 0]]
    }, 
    {
      "op": "elemwise_add", 
      "name": "_plus653", 
      "inputs": [[582, 2, 0], [590, 0, 0]]
    }, 
    {
      "op": "Activation", 
      "name": "gru_1t18__h_act", 
      "attrs": {"act_type": "tanh"}, 
      "inputs": [[591, 0, 0]]
    }, 
    {
      "op": "elemwise_mul", 
      "name": "_mul652", 
      "inputs": [[587, 0, 0], [592, 0, 0]]
    }, 
    {
      "op": "elemwise_mul", 
      "name": "_mul653", 
      "inputs": [[586, 0, 0], [565, 0, 0]]
    }, 
    {
      "op": "elemwise_add", 
      "name": "gru_1t18_out", 
      "inputs": [[593, 0, 0], [594, 0, 0]]
    }, 
    {
      "op": "FullyConnected", 
      "name": "gru_0t19__i2h", 
      "attrs": {"num_hidden": "768"}, 
      "inputs": [[15, 19, 0], [16, 0, 0], [17, 0, 0]]
    }, 
    {
      "op": "SliceChannel", 
      "name": "gru_0t19__i2h_slice", 
      "attrs": {"num_outputs": "3"}, 
      "inputs": [[596, 0, 0]]
    }, 
    {
      "op": "FullyConnected", 
      "name": "gru_0t19__h2h", 
      "attrs": {"num_hidden": "768"}, 
      "inputs": [[580, 0, 0], [21, 0, 0], [22, 0, 0]]
    }, 
    {
      "op": "SliceChannel", 
      "name": "gru_0t19__h2h_slice", 
      "attrs": {"num_outputs": "3"}, 
      "inputs": [[598, 0, 0]]
    }, 
    {
      "op": "elemwise_add", 
      "name": "_plus58", 
      "inputs": [[597, 1, 0], [599, 1, 0]]
    }, 
    {
      "op": "Activation", 
      "name": "gru_0t19__z_act", 
      "attrs": {"act_type": "sigmoid"}, 
      "inputs": [[600, 0, 0]]
    }, 
    {
      "op": "_rminus_scalar", 
      "name": "_rminusscalar19", 
      "attrs": {"scalar": "1.0"}, 
      "inputs": [[601, 0, 0]]
    }, 
    {
      "op": "elemwise_add", 
      "name": "_plus57", 
      "inputs": [[597, 0, 0], [599, 0, 0]]
    }, 
    {
      "op": "Activation", 
      "name": "gru_0t19__r_act", 
      "attrs": {"act_type": "sigmoid"}, 
      "inputs": [[603, 0, 0]]
    }, 
    {
      "op": "elemwise_mul", 
      "name": "_mul57", 
      "inputs": [[604, 0, 0], [599, 2, 0]]
    }, 
    {
      "op": "elemwise_add", 
      "name": "_plus59", 
      "inputs": [[597, 2, 0], [605, 0, 0]]
    }, 
    {
      "op": "Activation", 
      "name": "gru_0t19__h_act", 
      "attrs": {"act_type": "tanh"}, 
      "inputs": [[606, 0, 0]]
    }, 
    {
      "op": "elemwise_mul", 
      "name": "_mul58", 
      "inputs": [[602, 0, 0], [607, 0, 0]]
    }, 
    {
      "op": "elemwise_mul", 
      "name": "_mul59", 
      "inputs": [[601, 0, 0], [580, 0, 0]]
    }, 
    {
      "op": "elemwise_add", 
      "name": "gru_0t19_out", 
      "inputs": [[608, 0, 0], [609, 0, 0]]
    }, 
    {
      "op": "FullyConnected", 
      "name": "gru_1t19__i2h", 
      "attrs": {"num_hidden": "768"}, 
      "inputs": [[610, 0, 0], [36, 0, 0], [37, 0, 0]]
    }, 
    {
      "op": "SliceChannel", 
      "name": "gru_1t19__i2h_slice", 
      "attrs": {"num_outputs": "3"}, 
      "inputs": [[611, 0, 0]]
    }, 
    {
      "op": "FullyConnected", 
      "name": "gru_1t19__h2h", 
      "attrs": {"num_hidden": "768"}, 
      "inputs": [[595, 0, 0], [41, 0, 0], [42, 0, 0]]
    }, 
    {
      "op": "SliceChannel", 
      "name": "gru_1t19__h2h_slice", 
      "attrs": {"num_outputs": "3"}, 
      "inputs": [[613, 0, 0]]
    }, 
    {
      "op": "elemwise_add", 
      "name": "_plus655", 
      "inputs": [[612, 1, 0], [614, 1, 0]]
    }, 
    {
      "op": "Activation", 
      "name": "gru_1t19__z_act", 
      "attrs": {"act_type": "sigmoid"}, 
      "inputs": [[615, 0, 0]]
    }, 
    {
      "op": "_rminus_scalar", 
      "name": "_rminusscalar218", 
      "attrs": {"scalar": "1.0"}, 
      "inputs": [[616, 0, 0]]
    }, 
    {
      "op": "elemwise_add", 
      "name": "_plus654", 
      "inputs": [[612, 0, 0], [614, 0, 0]]
    }, 
    {
      "op": "Activation", 
      "name": "gru_1t19__r_act", 
      "attrs": {"act_type": "sigmoid"}, 
      "inputs": [[618, 0, 0]]
    }, 
    {
      "op": "elemwise_mul", 
      "name": "_mul654", 
      "inputs": [[619, 0, 0], [614, 2, 0]]
    }, 
    {
      "op": "elemwise_add", 
      "name": "_plus656", 
      "inputs": [[612, 2, 0], [620, 0, 0]]
    }, 
    {
      "op": "Activation", 
      "name": "gru_1t19__h_act", 
      "attrs": {"act_type": "tanh"}, 
      "inputs": [[621, 0, 0]]
    }, 
    {
      "op": "elemwise_mul", 
      "name": "_mul655", 
      "inputs": [[617, 0, 0], [622, 0, 0]]
    }, 
    {
      "op": "elemwise_mul", 
      "name": "_mul656", 
      "inputs": [[616, 0, 0], [595, 0, 0]]
    }, 
    {
      "op": "elemwise_add", 
      "name": "gru_1t19_out", 
      "inputs": [[623, 0, 0], [624, 0, 0]]
    }, 
    {
      "op": "FullyConnected", 
      "name": "gru_0t20__i2h", 
      "attrs": {"num_hidden": "768"}, 
      "inputs": [[15, 20, 0], [16, 0, 0], [17, 0, 0]]
    }, 
    {
      "op": "SliceChannel", 
      "name": "gru_0t20__i2h_slice", 
      "attrs": {"num_outputs": "3"}, 
      "inputs": [[626, 0, 0]]
    }, 
    {
      "op": "FullyConnected", 
      "name": "gru_0t20__h2h", 
      "attrs": {"num_hidden": "768"}, 
      "inputs": [[610, 0, 0], [21, 0, 0], [22, 0, 0]]
    }, 
    {
      "op": "SliceChannel", 
      "name": "gru_0t20__h2h_slice", 
      "attrs": {"num_outputs": "3"}, 
      "inputs": [[628, 0, 0]]
    }, 
    {
      "op": "elemwise_add", 
      "name": "_plus61", 
      "inputs": [[627, 1, 0], [629, 1, 0]]
    }, 
    {
      "op": "Activation", 
      "name": "gru_0t20__z_act", 
      "attrs": {"act_type": "sigmoid"}, 
      "inputs": [[630, 0, 0]]
    }, 
    {
      "op": "_rminus_scalar", 
      "name": "_rminusscalar20", 
      "attrs": {"scalar": "1.0"}, 
      "inputs": [[631, 0, 0]]
    }, 
    {
      "op": "elemwise_add", 
      "name": "_plus60", 
      "inputs": [[627, 0, 0], [629, 0, 0]]
    }, 
    {
      "op": "Activation", 
      "name": "gru_0t20__r_act", 
      "attrs": {"act_type": "sigmoid"}, 
      "inputs": [[633, 0, 0]]
    }, 
    {
      "op": "elemwise_mul", 
      "name": "_mul60", 
      "inputs": [[634, 0, 0], [629, 2, 0]]
    }, 
    {
      "op": "elemwise_add", 
      "name": "_plus62", 
      "inputs": [[627, 2, 0], [635, 0, 0]]
    }, 
    {
      "op": "Activation", 
      "name": "gru_0t20__h_act", 
      "attrs": {"act_type": "tanh"}, 
      "inputs": [[636, 0, 0]]
    }, 
    {
      "op": "elemwise_mul", 
      "name": "_mul61", 
      "inputs": [[632, 0, 0], [637, 0, 0]]
    }, 
    {
      "op": "elemwise_mul", 
      "name": "_mul62", 
      "inputs": [[631, 0, 0], [610, 0, 0]]
    }, 
    {
      "op": "elemwise_add", 
      "name": "gru_0t20_out", 
      "inputs": [[638, 0, 0], [639, 0, 0]]
    }, 
    {
      "op": "FullyConnected", 
      "name": "gru_1t20__i2h", 
      "attrs": {"num_hidden": "768"}, 
      "inputs": [[640, 0, 0], [36, 0, 0], [37, 0, 0]]
    }, 
    {
      "op": "SliceChannel", 
      "name": "gru_1t20__i2h_slice", 
      "attrs": {"num_outputs": "3"}, 
      "inputs": [[641, 0, 0]]
    }, 
    {
      "op": "FullyConnected", 
      "name": "gru_1t20__h2h", 
      "attrs": {"num_hidden": "768"}, 
      "inputs": [[625, 0, 0], [41, 0, 0], [42, 0, 0]]
    }, 
    {
      "op": "SliceChannel", 
      "name": "gru_1t20__h2h_slice", 
      "attrs": {"num_outputs": "3"}, 
      "inputs": [[643, 0, 0]]
    }, 
    {
      "op": "elemwise_add", 
      "name": "_plus658", 
      "inputs": [[642, 1, 0], [644, 1, 0]]
    }, 
    {
      "op": "Activation", 
      "name": "gru_1t20__z_act", 
      "attrs": {"act_type": "sigmoid"}, 
      "inputs": [[645, 0, 0]]
    }, 
    {
      "op": "_rminus_scalar", 
      "name": "_rminusscalar219", 
      "attrs": {"scalar": "1.0"}, 
      "inputs": [[646, 0, 0]]
    }, 
    {
      "op": "elemwise_add", 
      "name": "_plus657", 
      "inputs": [[642, 0, 0], [644, 0, 0]]
    }, 
    {
      "op": "Activation", 
      "name": "gru_1t20__r_act", 
      "attrs": {"act_type": "sigmoid"}, 
      "inputs": [[648, 0, 0]]
    }, 
    {
      "op": "elemwise_mul", 
      "name": "_mul657", 
      "inputs": [[649, 0, 0], [644, 2, 0]]
    }, 
    {
      "op": "elemwise_add", 
      "name": "_plus659", 
      "inputs": [[642, 2, 0], [650, 0, 0]]
    }, 
    {
      "op": "Activation", 
      "name": "gru_1t20__h_act", 
      "attrs": {"act_type": "tanh"}, 
      "inputs": [[651, 0, 0]]
    }, 
    {
      "op": "elemwise_mul", 
      "name": "_mul658", 
      "inputs": [[647, 0, 0], [652, 0, 0]]
    }, 
    {
      "op": "elemwise_mul", 
      "name": "_mul659", 
      "inputs": [[646, 0, 0], [625, 0, 0]]
    }, 
    {
      "op": "elemwise_add", 
      "name": "gru_1t20_out", 
      "inputs": [[653, 0, 0], [654, 0, 0]]
    }, 
    {
      "op": "FullyConnected", 
      "name": "gru_0t21__i2h", 
      "attrs": {"num_hidden": "768"}, 
      "inputs": [[15, 21, 0], [16, 0, 0], [17, 0, 0]]
    }, 
    {
      "op": "SliceChannel", 
      "name": "gru_0t21__i2h_slice", 
      "attrs": {"num_outputs": "3"}, 
      "inputs": [[656, 0, 0]]
    }, 
    {
      "op": "FullyConnected", 
      "name": "gru_0t21__h2h", 
      "attrs": {"num_hidden": "768"}, 
      "inputs": [[640, 0, 0], [21, 0, 0], [22, 0, 0]]
    }, 
    {
      "op": "SliceChannel", 
      "name": "gru_0t21__h2h_slice", 
      "attrs": {"num_outputs": "3"}, 
      "inputs": [[658, 0, 0]]
    }, 
    {
      "op": "elemwise_add", 
      "name": "_plus64", 
      "inputs": [[657, 1, 0], [659, 1, 0]]
    }, 
    {
      "op": "Activation", 
      "name": "gru_0t21__z_act", 
      "attrs": {"act_type": "sigmoid"}, 
      "inputs": [[660, 0, 0]]
    }, 
    {
      "op": "_rminus_scalar", 
      "name": "_rminusscalar21", 
      "attrs": {"scalar": "1.0"}, 
      "inputs": [[661, 0, 0]]
    }, 
    {
      "op": "elemwise_add", 
      "name": "_plus63", 
      "inputs": [[657, 0, 0], [659, 0, 0]]
    }, 
    {
      "op": "Activation", 
      "name": "gru_0t21__r_act", 
      "attrs": {"act_type": "sigmoid"}, 
      "inputs": [[663, 0, 0]]
    }, 
    {
      "op": "elemwise_mul", 
      "name": "_mul63", 
      "inputs": [[664, 0, 0], [659, 2, 0]]
    }, 
    {
      "op": "elemwise_add", 
      "name": "_plus65", 
      "inputs": [[657, 2, 0], [665, 0, 0]]
    }, 
    {
      "op": "Activation", 
      "name": "gru_0t21__h_act", 
      "attrs": {"act_type": "tanh"}, 
      "inputs": [[666, 0, 0]]
    }, 
    {
      "op": "elemwise_mul", 
      "name": "_mul64", 
      "inputs": [[662, 0, 0], [667, 0, 0]]
    }, 
    {
      "op": "elemwise_mul", 
      "name": "_mul65", 
      "inputs": [[661, 0, 0], [640, 0, 0]]
    }, 
    {
      "op": "elemwise_add", 
      "name": "gru_0t21_out", 
      "inputs": [[668, 0, 0], [669, 0, 0]]
    }, 
    {
      "op": "FullyConnected", 
      "name": "gru_1t21__i2h", 
      "attrs": {"num_hidden": "768"}, 
      "inputs": [[670, 0, 0], [36, 0, 0], [37, 0, 0]]
    }, 
    {
      "op": "SliceChannel", 
      "name": "gru_1t21__i2h_slice", 
      "attrs": {"num_outputs": "3"}, 
      "inputs": [[671, 0, 0]]
    }, 
    {
      "op": "FullyConnected", 
      "name": "gru_1t21__h2h", 
      "attrs": {"num_hidden": "768"}, 
      "inputs": [[655, 0, 0], [41, 0, 0], [42, 0, 0]]
    }, 
    {
      "op": "SliceChannel", 
      "name": "gru_1t21__h2h_slice", 
      "attrs": {"num_outputs": "3"}, 
      "inputs": [[673, 0, 0]]
    }, 
    {
      "op": "elemwise_add", 
      "name": "_plus661", 
      "inputs": [[672, 1, 0], [674, 1, 0]]
    }, 
    {
      "op": "Activation", 
      "name": "gru_1t21__z_act", 
      "attrs": {"act_type": "sigmoid"}, 
      "inputs": [[675, 0, 0]]
    }, 
    {
      "op": "_rminus_scalar", 
      "name": "_rminusscalar220", 
      "attrs": {"scalar": "1.0"}, 
      "inputs": [[676, 0, 0]]
    }, 
    {
      "op": "elemwise_add", 
      "name": "_plus660", 
      "inputs": [[672, 0, 0], [674, 0, 0]]
    }, 
    {
      "op": "Activation", 
      "name": "gru_1t21__r_act", 
      "attrs": {"act_type": "sigmoid"}, 
      "inputs": [[678, 0, 0]]
    }, 
    {
      "op": "elemwise_mul", 
      "name": "_mul660", 
      "inputs": [[679, 0, 0], [674, 2, 0]]
    }, 
    {
      "op": "elemwise_add", 
      "name": "_plus662", 
      "inputs": [[672, 2, 0], [680, 0, 0]]
    }, 
    {
      "op": "Activation", 
      "name": "gru_1t21__h_act", 
      "attrs": {"act_type": "tanh"}, 
      "inputs": [[681, 0, 0]]
    }, 
    {
      "op": "elemwise_mul", 
      "name": "_mul661", 
      "inputs": [[677, 0, 0], [682, 0, 0]]
    }, 
    {
      "op": "elemwise_mul", 
      "name": "_mul662", 
      "inputs": [[676, 0, 0], [655, 0, 0]]
    }, 
    {
      "op": "elemwise_add", 
      "name": "gru_1t21_out", 
      "inputs": [[683, 0, 0], [684, 0, 0]]
    }, 
    {
      "op": "FullyConnected", 
      "name": "gru_0t22__i2h", 
      "attrs": {"num_hidden": "768"}, 
      "inputs": [[15, 22, 0], [16, 0, 0], [17, 0, 0]]
    }, 
    {
      "op": "SliceChannel", 
      "name": "gru_0t22__i2h_slice", 
      "attrs": {"num_outputs": "3"}, 
      "inputs": [[686, 0, 0]]
    }, 
    {
      "op": "FullyConnected", 
      "name": "gru_0t22__h2h", 
      "attrs": {"num_hidden": "768"}, 
      "inputs": [[670, 0, 0], [21, 0, 0], [22, 0, 0]]
    }, 
    {
      "op": "SliceChannel", 
      "name": "gru_0t22__h2h_slice", 
      "attrs": {"num_outputs": "3"}, 
      "inputs": [[688, 0, 0]]
    }, 
    {
      "op": "elemwise_add", 
      "name": "_plus67", 
      "inputs": [[687, 1, 0], [689, 1, 0]]
    }, 
    {
      "op": "Activation", 
      "name": "gru_0t22__z_act", 
      "attrs": {"act_type": "sigmoid"}, 
      "inputs": [[690, 0, 0]]
    }, 
    {
      "op": "_rminus_scalar", 
      "name": "_rminusscalar22", 
      "attrs": {"scalar": "1.0"}, 
      "inputs": [[691, 0, 0]]
    }, 
    {
      "op": "elemwise_add", 
      "name": "_plus66", 
      "inputs": [[687, 0, 0], [689, 0, 0]]
    }, 
    {
      "op": "Activation", 
      "name": "gru_0t22__r_act", 
      "attrs": {"act_type": "sigmoid"}, 
      "inputs": [[693, 0, 0]]
    }, 
    {
      "op": "elemwise_mul", 
      "name": "_mul66", 
      "inputs": [[694, 0, 0], [689, 2, 0]]
    }, 
    {
      "op": "elemwise_add", 
      "name": "_plus68", 
      "inputs": [[687, 2, 0], [695, 0, 0]]
    }, 
    {
      "op": "Activation", 
      "name": "gru_0t22__h_act", 
      "attrs": {"act_type": "tanh"}, 
      "inputs": [[696, 0, 0]]
    }, 
    {
      "op": "elemwise_mul", 
      "name": "_mul67", 
      "inputs": [[692, 0, 0], [697, 0, 0]]
    }, 
    {
      "op": "elemwise_mul", 
      "name": "_mul68", 
      "inputs": [[691, 0, 0], [670, 0, 0]]
    }, 
    {
      "op": "elemwise_add", 
      "name": "gru_0t22_out", 
      "inputs": [[698, 0, 0], [699, 0, 0]]
    }, 
    {
      "op": "FullyConnected", 
      "name": "gru_1t22__i2h", 
      "attrs": {"num_hidden": "768"}, 
      "inputs": [[700, 0, 0], [36, 0, 0], [37, 0, 0]]
    }, 
    {
      "op": "SliceChannel", 
      "name": "gru_1t22__i2h_slice", 
      "attrs": {"num_outputs": "3"}, 
      "inputs": [[701, 0, 0]]
    }, 
    {
      "op": "FullyConnected", 
      "name": "gru_1t22__h2h", 
      "attrs": {"num_hidden": "768"}, 
      "inputs": [[685, 0, 0], [41, 0, 0], [42, 0, 0]]
    }, 
    {
      "op": "SliceChannel", 
      "name": "gru_1t22__h2h_slice", 
      "attrs": {"num_outputs": "3"}, 
      "inputs": [[703, 0, 0]]
    }, 
    {
      "op": "elemwise_add", 
      "name": "_plus664", 
      "inputs": [[702, 1, 0], [704, 1, 0]]
    }, 
    {
      "op": "Activation", 
      "name": "gru_1t22__z_act", 
      "attrs": {"act_type": "sigmoid"}, 
      "inputs": [[705, 0, 0]]
    }, 
    {
      "op": "_rminus_scalar", 
      "name": "_rminusscalar221", 
      "attrs": {"scalar": "1.0"}, 
      "inputs": [[706, 0, 0]]
    }, 
    {
      "op": "elemwise_add", 
      "name": "_plus663", 
      "inputs": [[702, 0, 0], [704, 0, 0]]
    }, 
    {
      "op": "Activation", 
      "name": "gru_1t22__r_act", 
      "attrs": {"act_type": "sigmoid"}, 
      "inputs": [[708, 0, 0]]
    }, 
    {
      "op": "elemwise_mul", 
      "name": "_mul663", 
      "inputs": [[709, 0, 0], [704, 2, 0]]
    }, 
    {
      "op": "elemwise_add", 
      "name": "_plus665", 
      "inputs": [[702, 2, 0], [710, 0, 0]]
    }, 
    {
      "op": "Activation", 
      "name": "gru_1t22__h_act", 
      "attrs": {"act_type": "tanh"}, 
      "inputs": [[711, 0, 0]]
    }, 
    {
      "op": "elemwise_mul", 
      "name": "_mul664", 
      "inputs": [[707, 0, 0], [712, 0, 0]]
    }, 
    {
      "op": "elemwise_mul", 
      "name": "_mul665", 
      "inputs": [[706, 0, 0], [685, 0, 0]]
    }, 
    {
      "op": "elemwise_add", 
      "name": "gru_1t22_out", 
      "inputs": [[713, 0, 0], [714, 0, 0]]
    }, 
    {
      "op": "FullyConnected", 
      "name": "gru_0t23__i2h", 
      "attrs": {"num_hidden": "768"}, 
      "inputs": [[15, 23, 0], [16, 0, 0], [17, 0, 0]]
    }, 
    {
      "op": "SliceChannel", 
      "name": "gru_0t23__i2h_slice", 
      "attrs": {"num_outputs": "3"}, 
      "inputs": [[716, 0, 0]]
    }, 
    {
      "op": "FullyConnected", 
      "name": "gru_0t23__h2h", 
      "attrs": {"num_hidden": "768"}, 
      "inputs": [[700, 0, 0], [21, 0, 0], [22, 0, 0]]
    }, 
    {
      "op": "SliceChannel", 
      "name": "gru_0t23__h2h_slice", 
      "attrs": {"num_outputs": "3"}, 
      "inputs": [[718, 0, 0]]
    }, 
    {
      "op": "elemwise_add", 
      "name": "_plus70", 
      "inputs": [[717, 1, 0], [719, 1, 0]]
    }, 
    {
      "op": "Activation", 
      "name": "gru_0t23__z_act", 
      "attrs": {"act_type": "sigmoid"}, 
      "inputs": [[720, 0, 0]]
    }, 
    {
      "op": "_rminus_scalar", 
      "name": "_rminusscalar23", 
      "attrs": {"scalar": "1.0"}, 
      "inputs": [[721, 0, 0]]
    }, 
    {
      "op": "elemwise_add", 
      "name": "_plus69", 
      "inputs": [[717, 0, 0], [719, 0, 0]]
    }, 
    {
      "op": "Activation", 
      "name": "gru_0t23__r_act", 
      "attrs": {"act_type": "sigmoid"}, 
      "inputs": [[723, 0, 0]]
    }, 
    {
      "op": "elemwise_mul", 
      "name": "_mul69", 
      "inputs": [[724, 0, 0], [719, 2, 0]]
    }, 
    {
      "op": "elemwise_add", 
      "name": "_plus71", 
      "inputs": [[717, 2, 0], [725, 0, 0]]
    }, 
    {
      "op": "Activation", 
      "name": "gru_0t23__h_act", 
      "attrs": {"act_type": "tanh"}, 
      "inputs": [[726, 0, 0]]
    }, 
    {
      "op": "elemwise_mul", 
      "name": "_mul70", 
      "inputs": [[722, 0, 0], [727, 0, 0]]
    }, 
    {
      "op": "elemwise_mul", 
      "name": "_mul71", 
      "inputs": [[721, 0, 0], [700, 0, 0]]
    }, 
    {
      "op": "elemwise_add", 
      "name": "gru_0t23_out", 
      "inputs": [[728, 0, 0], [729, 0, 0]]
    }, 
    {
      "op": "FullyConnected", 
      "name": "gru_1t23__i2h", 
      "attrs": {"num_hidden": "768"}, 
      "inputs": [[730, 0, 0], [36, 0, 0], [37, 0, 0]]
    }, 
    {
      "op": "SliceChannel", 
      "name": "gru_1t23__i2h_slice", 
      "attrs": {"num_outputs": "3"}, 
      "inputs": [[731, 0, 0]]
    }, 
    {
      "op": "FullyConnected", 
      "name": "gru_1t23__h2h", 
      "attrs": {"num_hidden": "768"}, 
      "inputs": [[715, 0, 0], [41, 0, 0], [42, 0, 0]]
    }, 
    {
      "op": "SliceChannel", 
      "name": "gru_1t23__h2h_slice", 
      "attrs": {"num_outputs": "3"}, 
      "inputs": [[733, 0, 0]]
    }, 
    {
      "op": "elemwise_add", 
      "name": "_plus667", 
      "inputs": [[732, 1, 0], [734, 1, 0]]
    }, 
    {
      "op": "Activation", 
      "name": "gru_1t23__z_act", 
      "attrs": {"act_type": "sigmoid"}, 
      "inputs": [[735, 0, 0]]
    }, 
    {
      "op": "_rminus_scalar", 
      "name": "_rminusscalar222", 
      "attrs": {"scalar": "1.0"}, 
      "inputs": [[736, 0, 0]]
    }, 
    {
      "op": "elemwise_add", 
      "name": "_plus666", 
      "inputs": [[732, 0, 0], [734, 0, 0]]
    }, 
    {
      "op": "Activation", 
      "name": "gru_1t23__r_act", 
      "attrs": {"act_type": "sigmoid"}, 
      "inputs": [[738, 0, 0]]
    }, 
    {
      "op": "elemwise_mul", 
      "name": "_mul666", 
      "inputs": [[739, 0, 0], [734, 2, 0]]
    }, 
    {
      "op": "elemwise_add", 
      "name": "_plus668", 
      "inputs": [[732, 2, 0], [740, 0, 0]]
    }, 
    {
      "op": "Activation", 
      "name": "gru_1t23__h_act", 
      "attrs": {"act_type": "tanh"}, 
      "inputs": [[741, 0, 0]]
    }, 
    {
      "op": "elemwise_mul", 
      "name": "_mul667", 
      "inputs": [[737, 0, 0], [742, 0, 0]]
    }, 
    {
      "op": "elemwise_mul", 
      "name": "_mul668", 
      "inputs": [[736, 0, 0], [715, 0, 0]]
    }, 
    {
      "op": "elemwise_add", 
      "name": "gru_1t23_out", 
      "inputs": [[743, 0, 0], [744, 0, 0]]
    }, 
    {
      "op": "FullyConnected", 
      "name": "gru_0t24__i2h", 
      "attrs": {"num_hidden": "768"}, 
      "inputs": [[15, 24, 0], [16, 0, 0], [17, 0, 0]]
    }, 
    {
      "op": "SliceChannel", 
      "name": "gru_0t24__i2h_slice", 
      "attrs": {"num_outputs": "3"}, 
      "inputs": [[746, 0, 0]]
    }, 
    {
      "op": "FullyConnected", 
      "name": "gru_0t24__h2h", 
      "attrs": {"num_hidden": "768"}, 
      "inputs": [[730, 0, 0], [21, 0, 0], [22, 0, 0]]
    }, 
    {
      "op": "SliceChannel", 
      "name": "gru_0t24__h2h_slice", 
      "attrs": {"num_outputs": "3"}, 
      "inputs": [[748, 0, 0]]
    }, 
    {
      "op": "elemwise_add", 
      "name": "_plus73", 
      "inputs": [[747, 1, 0], [749, 1, 0]]
    }, 
    {
      "op": "Activation", 
      "name": "gru_0t24__z_act", 
      "attrs": {"act_type": "sigmoid"}, 
      "inputs": [[750, 0, 0]]
    }, 
    {
      "op": "_rminus_scalar", 
      "name": "_rminusscalar24", 
      "attrs": {"scalar": "1.0"}, 
      "inputs": [[751, 0, 0]]
    }, 
    {
      "op": "elemwise_add", 
      "name": "_plus72", 
      "inputs": [[747, 0, 0], [749, 0, 0]]
    }, 
    {
      "op": "Activation", 
      "name": "gru_0t24__r_act", 
      "attrs": {"act_type": "sigmoid"}, 
      "inputs": [[753, 0, 0]]
    }, 
    {
      "op": "elemwise_mul", 
      "name": "_mul72", 
      "inputs": [[754, 0, 0], [749, 2, 0]]
    }, 
    {
      "op": "elemwise_add", 
      "name": "_plus74", 
      "inputs": [[747, 2, 0], [755, 0, 0]]
    }, 
    {
      "op": "Activation", 
      "name": "gru_0t24__h_act", 
      "attrs": {"act_type": "tanh"}, 
      "inputs": [[756, 0, 0]]
    }, 
    {
      "op": "elemwise_mul", 
      "name": "_mul73", 
      "inputs": [[752, 0, 0], [757, 0, 0]]
    }, 
    {
      "op": "elemwise_mul", 
      "name": "_mul74", 
      "inputs": [[751, 0, 0], [730, 0, 0]]
    }, 
    {
      "op": "elemwise_add", 
      "name": "gru_0t24_out", 
      "inputs": [[758, 0, 0], [759, 0, 0]]
    }, 
    {
      "op": "FullyConnected", 
      "name": "gru_1t24__i2h", 
      "attrs": {"num_hidden": "768"}, 
      "inputs": [[760, 0, 0], [36, 0, 0], [37, 0, 0]]
    }, 
    {
      "op": "SliceChannel", 
      "name": "gru_1t24__i2h_slice", 
      "attrs": {"num_outputs": "3"}, 
      "inputs": [[761, 0, 0]]
    }, 
    {
      "op": "FullyConnected", 
      "name": "gru_1t24__h2h", 
      "attrs": {"num_hidden": "768"}, 
      "inputs": [[745, 0, 0], [41, 0, 0], [42, 0, 0]]
    }, 
    {
      "op": "SliceChannel", 
      "name": "gru_1t24__h2h_slice", 
      "attrs": {"num_outputs": "3"}, 
      "inputs": [[763, 0, 0]]
    }, 
    {
      "op": "elemwise_add", 
      "name": "_plus670", 
      "inputs": [[762, 1, 0], [764, 1, 0]]
    }, 
    {
      "op": "Activation", 
      "name": "gru_1t24__z_act", 
      "attrs": {"act_type": "sigmoid"}, 
      "inputs": [[765, 0, 0]]
    }, 
    {
      "op": "_rminus_scalar", 
      "name": "_rminusscalar223", 
      "attrs": {"scalar": "1.0"}, 
      "inputs": [[766, 0, 0]]
    }, 
    {
      "op": "elemwise_add", 
      "name": "_plus669", 
      "inputs": [[762, 0, 0], [764, 0, 0]]
    }, 
    {
      "op": "Activation", 
      "name": "gru_1t24__r_act", 
      "attrs": {"act_type": "sigmoid"}, 
      "inputs": [[768, 0, 0]]
    }, 
    {
      "op": "elemwise_mul", 
      "name": "_mul669", 
      "inputs": [[769, 0, 0], [764, 2, 0]]
    }, 
    {
      "op": "elemwise_add", 
      "name": "_plus671", 
      "inputs": [[762, 2, 0], [770, 0, 0]]
    }, 
    {
      "op": "Activation", 
      "name": "gru_1t24__h_act", 
      "attrs": {"act_type": "tanh"}, 
      "inputs": [[771, 0, 0]]
    }, 
    {
      "op": "elemwise_mul", 
      "name": "_mul670", 
      "inputs": [[767, 0, 0], [772, 0, 0]]
    }, 
    {
      "op": "elemwise_mul", 
      "name": "_mul671", 
      "inputs": [[766, 0, 0], [745, 0, 0]]
    }, 
    {
      "op": "elemwise_add", 
      "name": "gru_1t24_out", 
      "inputs": [[773, 0, 0], [774, 0, 0]]
    }, 
    {
      "op": "FullyConnected", 
      "name": "gru_0t25__i2h", 
      "attrs": {"num_hidden": "768"}, 
      "inputs": [[15, 25, 0], [16, 0, 0], [17, 0, 0]]
    }, 
    {
      "op": "SliceChannel", 
      "name": "gru_0t25__i2h_slice", 
      "attrs": {"num_outputs": "3"}, 
      "inputs": [[776, 0, 0]]
    }, 
    {
      "op": "FullyConnected", 
      "name": "gru_0t25__h2h", 
      "attrs": {"num_hidden": "768"}, 
      "inputs": [[760, 0, 0], [21, 0, 0], [22, 0, 0]]
    }, 
    {
      "op": "SliceChannel", 
      "name": "gru_0t25__h2h_slice", 
      "attrs": {"num_outputs": "3"}, 
      "inputs": [[778, 0, 0]]
    }, 
    {
      "op": "elemwise_add", 
      "name": "_plus76", 
      "inputs": [[777, 1, 0], [779, 1, 0]]
    }, 
    {
      "op": "Activation", 
      "name": "gru_0t25__z_act", 
      "attrs": {"act_type": "sigmoid"}, 
      "inputs": [[780, 0, 0]]
    }, 
    {
      "op": "_rminus_scalar", 
      "name": "_rminusscalar25", 
      "attrs": {"scalar": "1.0"}, 
      "inputs": [[781, 0, 0]]
    }, 
    {
      "op": "elemwise_add", 
      "name": "_plus75", 
      "inputs": [[777, 0, 0], [779, 0, 0]]
    }, 
    {
      "op": "Activation", 
      "name": "gru_0t25__r_act", 
      "attrs": {"act_type": "sigmoid"}, 
      "inputs": [[783, 0, 0]]
    }, 
    {
      "op": "elemwise_mul", 
      "name": "_mul75", 
      "inputs": [[784, 0, 0], [779, 2, 0]]
    }, 
    {
      "op": "elemwise_add", 
      "name": "_plus77", 
      "inputs": [[777, 2, 0], [785, 0, 0]]
    }, 
    {
      "op": "Activation", 
      "name": "gru_0t25__h_act", 
      "attrs": {"act_type": "tanh"}, 
      "inputs": [[786, 0, 0]]
    }, 
    {
      "op": "elemwise_mul", 
      "name": "_mul76", 
      "inputs": [[782, 0, 0], [787, 0, 0]]
    }, 
    {
      "op": "elemwise_mul", 
      "name": "_mul77", 
      "inputs": [[781, 0, 0], [760, 0, 0]]
    }, 
    {
      "op": "elemwise_add", 
      "name": "gru_0t25_out", 
      "inputs": [[788, 0, 0], [789, 0, 0]]
    }, 
    {
      "op": "FullyConnected", 
      "name": "gru_1t25__i2h", 
      "attrs": {"num_hidden": "768"}, 
      "inputs": [[790, 0, 0], [36, 0, 0], [37, 0, 0]]
    }, 
    {
      "op": "SliceChannel", 
      "name": "gru_1t25__i2h_slice", 
      "attrs": {"num_outputs": "3"}, 
      "inputs": [[791, 0, 0]]
    }, 
    {
      "op": "FullyConnected", 
      "name": "gru_1t25__h2h", 
      "attrs": {"num_hidden": "768"}, 
      "inputs": [[775, 0, 0], [41, 0, 0], [42, 0, 0]]
    }, 
    {
      "op": "SliceChannel", 
      "name": "gru_1t25__h2h_slice", 
      "attrs": {"num_outputs": "3"}, 
      "inputs": [[793, 0, 0]]
    }, 
    {
      "op": "elemwise_add", 
      "name": "_plus673", 
      "inputs": [[792, 1, 0], [794, 1, 0]]
    }, 
    {
      "op": "Activation", 
      "name": "gru_1t25__z_act", 
      "attrs": {"act_type": "sigmoid"}, 
      "inputs": [[795, 0, 0]]
    }, 
    {
      "op": "_rminus_scalar", 
      "name": "_rminusscalar224", 
      "attrs": {"scalar": "1.0"}, 
      "inputs": [[796, 0, 0]]
    }, 
    {
      "op": "elemwise_add", 
      "name": "_plus672", 
      "inputs": [[792, 0, 0], [794, 0, 0]]
    }, 
    {
      "op": "Activation", 
      "name": "gru_1t25__r_act", 
      "attrs": {"act_type": "sigmoid"}, 
      "inputs": [[798, 0, 0]]
    }, 
    {
      "op": "elemwise_mul", 
      "name": "_mul672", 
      "inputs": [[799, 0, 0], [794, 2, 0]]
    }, 
    {
      "op": "elemwise_add", 
      "name": "_plus674", 
      "inputs": [[792, 2, 0], [800, 0, 0]]
    }, 
    {
      "op": "Activation", 
      "name": "gru_1t25__h_act", 
      "attrs": {"act_type": "tanh"}, 
      "inputs": [[801, 0, 0]]
    }, 
    {
      "op": "elemwise_mul", 
      "name": "_mul673", 
      "inputs": [[797, 0, 0], [802, 0, 0]]
    }, 
    {
      "op": "elemwise_mul", 
      "name": "_mul674", 
      "inputs": [[796, 0, 0], [775, 0, 0]]
    }, 
    {
      "op": "elemwise_add", 
      "name": "gru_1t25_out", 
      "inputs": [[803, 0, 0], [804, 0, 0]]
    }, 
    {
      "op": "FullyConnected", 
      "name": "gru_0t26__i2h", 
      "attrs": {"num_hidden": "768"}, 
      "inputs": [[15, 26, 0], [16, 0, 0], [17, 0, 0]]
    }, 
    {
      "op": "SliceChannel", 
      "name": "gru_0t26__i2h_slice", 
      "attrs": {"num_outputs": "3"}, 
      "inputs": [[806, 0, 0]]
    }, 
    {
      "op": "FullyConnected", 
      "name": "gru_0t26__h2h", 
      "attrs": {"num_hidden": "768"}, 
      "inputs": [[790, 0, 0], [21, 0, 0], [22, 0, 0]]
    }, 
    {
      "op": "SliceChannel", 
      "name": "gru_0t26__h2h_slice", 
      "attrs": {"num_outputs": "3"}, 
      "inputs": [[808, 0, 0]]
    }, 
    {
      "op": "elemwise_add", 
      "name": "_plus79", 
      "inputs": [[807, 1, 0], [809, 1, 0]]
    }, 
    {
      "op": "Activation", 
      "name": "gru_0t26__z_act", 
      "attrs": {"act_type": "sigmoid"}, 
      "inputs": [[810, 0, 0]]
    }, 
    {
      "op": "_rminus_scalar", 
      "name": "_rminusscalar26", 
      "attrs": {"scalar": "1.0"}, 
      "inputs": [[811, 0, 0]]
    }, 
    {
      "op": "elemwise_add", 
      "name": "_plus78", 
      "inputs": [[807, 0, 0], [809, 0, 0]]
    }, 
    {
      "op": "Activation", 
      "name": "gru_0t26__r_act", 
      "attrs": {"act_type": "sigmoid"}, 
      "inputs": [[813, 0, 0]]
    }, 
    {
      "op": "elemwise_mul", 
      "name": "_mul78", 
      "inputs": [[814, 0, 0], [809, 2, 0]]
    }, 
    {
      "op": "elemwise_add", 
      "name": "_plus80", 
      "inputs": [[807, 2, 0], [815, 0, 0]]
    }, 
    {
      "op": "Activation", 
      "name": "gru_0t26__h_act", 
      "attrs": {"act_type": "tanh"}, 
      "inputs": [[816, 0, 0]]
    }, 
    {
      "op": "elemwise_mul", 
      "name": "_mul79", 
      "inputs": [[812, 0, 0], [817, 0, 0]]
    }, 
    {
      "op": "elemwise_mul", 
      "name": "_mul80", 
      "inputs": [[811, 0, 0], [790, 0, 0]]
    }, 
    {
      "op": "elemwise_add", 
      "name": "gru_0t26_out", 
      "inputs": [[818, 0, 0], [819, 0, 0]]
    }, 
    {
      "op": "FullyConnected", 
      "name": "gru_1t26__i2h", 
      "attrs": {"num_hidden": "768"}, 
      "inputs": [[820, 0, 0], [36, 0, 0], [37, 0, 0]]
    }, 
    {
      "op": "SliceChannel", 
      "name": "gru_1t26__i2h_slice", 
      "attrs": {"num_outputs": "3"}, 
      "inputs": [[821, 0, 0]]
    }, 
    {
      "op": "FullyConnected", 
      "name": "gru_1t26__h2h", 
      "attrs": {"num_hidden": "768"}, 
      "inputs": [[805, 0, 0], [41, 0, 0], [42, 0, 0]]
    }, 
    {
      "op": "SliceChannel", 
      "name": "gru_1t26__h2h_slice", 
      "attrs": {"num_outputs": "3"}, 
      "inputs": [[823, 0, 0]]
    }, 
    {
      "op": "elemwise_add", 
      "name": "_plus676", 
      "inputs": [[822, 1, 0], [824, 1, 0]]
    }, 
    {
      "op": "Activation", 
      "name": "gru_1t26__z_act", 
      "attrs": {"act_type": "sigmoid"}, 
      "inputs": [[825, 0, 0]]
    }, 
    {
      "op": "_rminus_scalar", 
      "name": "_rminusscalar225", 
      "attrs": {"scalar": "1.0"}, 
      "inputs": [[826, 0, 0]]
    }, 
    {
      "op": "elemwise_add", 
      "name": "_plus675", 
      "inputs": [[822, 0, 0], [824, 0, 0]]
    }, 
    {
      "op": "Activation", 
      "name": "gru_1t26__r_act", 
      "attrs": {"act_type": "sigmoid"}, 
      "inputs": [[828, 0, 0]]
    }, 
    {
      "op": "elemwise_mul", 
      "name": "_mul675", 
      "inputs": [[829, 0, 0], [824, 2, 0]]
    }, 
    {
      "op": "elemwise_add", 
      "name": "_plus677", 
      "inputs": [[822, 2, 0], [830, 0, 0]]
    }, 
    {
      "op": "Activation", 
      "name": "gru_1t26__h_act", 
      "attrs": {"act_type": "tanh"}, 
      "inputs": [[831, 0, 0]]
    }, 
    {
      "op": "elemwise_mul", 
      "name": "_mul676", 
      "inputs": [[827, 0, 0], [832, 0, 0]]
    }, 
    {
      "op": "elemwise_mul", 
      "name": "_mul677", 
      "inputs": [[826, 0, 0], [805, 0, 0]]
    }, 
    {
      "op": "elemwise_add", 
      "name": "gru_1t26_out", 
      "inputs": [[833, 0, 0], [834, 0, 0]]
    }, 
    {
      "op": "FullyConnected", 
      "name": "gru_0t27__i2h", 
      "attrs": {"num_hidden": "768"}, 
      "inputs": [[15, 27, 0], [16, 0, 0], [17, 0, 0]]
    }, 
    {
      "op": "SliceChannel", 
      "name": "gru_0t27__i2h_slice", 
      "attrs": {"num_outputs": "3"}, 
      "inputs": [[836, 0, 0]]
    }, 
    {
      "op": "FullyConnected", 
      "name": "gru_0t27__h2h", 
      "attrs": {"num_hidden": "768"}, 
      "inputs": [[820, 0, 0], [21, 0, 0], [22, 0, 0]]
    }, 
    {
      "op": "SliceChannel", 
      "name": "gru_0t27__h2h_slice", 
      "attrs": {"num_outputs": "3"}, 
      "inputs": [[838, 0, 0]]
    }, 
    {
      "op": "elemwise_add", 
      "name": "_plus82", 
      "inputs": [[837, 1, 0], [839, 1, 0]]
    }, 
    {
      "op": "Activation", 
      "name": "gru_0t27__z_act", 
      "attrs": {"act_type": "sigmoid"}, 
      "inputs": [[840, 0, 0]]
    }, 
    {
      "op": "_rminus_scalar", 
      "name": "_rminusscalar27", 
      "attrs": {"scalar": "1.0"}, 
      "inputs": [[841, 0, 0]]
    }, 
    {
      "op": "elemwise_add", 
      "name": "_plus81", 
      "inputs": [[837, 0, 0], [839, 0, 0]]
    }, 
    {
      "op": "Activation", 
      "name": "gru_0t27__r_act", 
      "attrs": {"act_type": "sigmoid"}, 
      "inputs": [[843, 0, 0]]
    }, 
    {
      "op": "elemwise_mul", 
      "name": "_mul81", 
      "inputs": [[844, 0, 0], [839, 2, 0]]
    }, 
    {
      "op": "elemwise_add", 
      "name": "_plus83", 
      "inputs": [[837, 2, 0], [845, 0, 0]]
    }, 
    {
      "op": "Activation", 
      "name": "gru_0t27__h_act", 
      "attrs": {"act_type": "tanh"}, 
      "inputs": [[846, 0, 0]]
    }, 
    {
      "op": "elemwise_mul", 
      "name": "_mul82", 
      "inputs": [[842, 0, 0], [847, 0, 0]]
    }, 
    {
      "op": "elemwise_mul", 
      "name": "_mul83", 
      "inputs": [[841, 0, 0], [820, 0, 0]]
    }, 
    {
      "op": "elemwise_add", 
      "name": "gru_0t27_out", 
      "inputs": [[848, 0, 0], [849, 0, 0]]
    }, 
    {
      "op": "FullyConnected", 
      "name": "gru_1t27__i2h", 
      "attrs": {"num_hidden": "768"}, 
      "inputs": [[850, 0, 0], [36, 0, 0], [37, 0, 0]]
    }, 
    {
      "op": "SliceChannel", 
      "name": "gru_1t27__i2h_slice", 
      "attrs": {"num_outputs": "3"}, 
      "inputs": [[851, 0, 0]]
    }, 
    {
      "op": "FullyConnected", 
      "name": "gru_1t27__h2h", 
      "attrs": {"num_hidden": "768"}, 
      "inputs": [[835, 0, 0], [41, 0, 0], [42, 0, 0]]
    }, 
    {
      "op": "SliceChannel", 
      "name": "gru_1t27__h2h_slice", 
      "attrs": {"num_outputs": "3"}, 
      "inputs": [[853, 0, 0]]
    }, 
    {
      "op": "elemwise_add", 
      "name": "_plus679", 
      "inputs": [[852, 1, 0], [854, 1, 0]]
    }, 
    {
      "op": "Activation", 
      "name": "gru_1t27__z_act", 
      "attrs": {"act_type": "sigmoid"}, 
      "inputs": [[855, 0, 0]]
    }, 
    {
      "op": "_rminus_scalar", 
      "name": "_rminusscalar226", 
      "attrs": {"scalar": "1.0"}, 
      "inputs": [[856, 0, 0]]
    }, 
    {
      "op": "elemwise_add", 
      "name": "_plus678", 
      "inputs": [[852, 0, 0], [854, 0, 0]]
    }, 
    {
      "op": "Activation", 
      "name": "gru_1t27__r_act", 
      "attrs": {"act_type": "sigmoid"}, 
      "inputs": [[858, 0, 0]]
    }, 
    {
      "op": "elemwise_mul", 
      "name": "_mul678", 
      "inputs": [[859, 0, 0], [854, 2, 0]]
    }, 
    {
      "op": "elemwise_add", 
      "name": "_plus680", 
      "inputs": [[852, 2, 0], [860, 0, 0]]
    }, 
    {
      "op": "Activation", 
      "name": "gru_1t27__h_act", 
      "attrs": {"act_type": "tanh"}, 
      "inputs": [[861, 0, 0]]
    }, 
    {
      "op": "elemwise_mul", 
      "name": "_mul679", 
      "inputs": [[857, 0, 0], [862, 0, 0]]
    }, 
    {
      "op": "elemwise_mul", 
      "name": "_mul680", 
      "inputs": [[856, 0, 0], [835, 0, 0]]
    }, 
    {
      "op": "elemwise_add", 
      "name": "gru_1t27_out", 
      "inputs": [[863, 0, 0], [864, 0, 0]]
    }, 
    {
      "op": "FullyConnected", 
      "name": "gru_0t28__i2h", 
      "attrs": {"num_hidden": "768"}, 
      "inputs": [[15, 28, 0], [16, 0, 0], [17, 0, 0]]
    }, 
    {
      "op": "SliceChannel", 
      "name": "gru_0t28__i2h_slice", 
      "attrs": {"num_outputs": "3"}, 
      "inputs": [[866, 0, 0]]
    }, 
    {
      "op": "FullyConnected", 
      "name": "gru_0t28__h2h", 
      "attrs": {"num_hidden": "768"}, 
      "inputs": [[850, 0, 0], [21, 0, 0], [22, 0, 0]]
    }, 
    {
      "op": "SliceChannel", 
      "name": "gru_0t28__h2h_slice", 
      "attrs": {"num_outputs": "3"}, 
      "inputs": [[868, 0, 0]]
    }, 
    {
      "op": "elemwise_add", 
      "name": "_plus85", 
      "inputs": [[867, 1, 0], [869, 1, 0]]
    }, 
    {
      "op": "Activation", 
      "name": "gru_0t28__z_act", 
      "attrs": {"act_type": "sigmoid"}, 
      "inputs": [[870, 0, 0]]
    }, 
    {
      "op": "_rminus_scalar", 
      "name": "_rminusscalar28", 
      "attrs": {"scalar": "1.0"}, 
      "inputs": [[871, 0, 0]]
    }, 
    {
      "op": "elemwise_add", 
      "name": "_plus84", 
      "inputs": [[867, 0, 0], [869, 0, 0]]
    }, 
    {
      "op": "Activation", 
      "name": "gru_0t28__r_act", 
      "attrs": {"act_type": "sigmoid"}, 
      "inputs": [[873, 0, 0]]
    }, 
    {
      "op": "elemwise_mul", 
      "name": "_mul84", 
      "inputs": [[874, 0, 0], [869, 2, 0]]
    }, 
    {
      "op": "elemwise_add", 
      "name": "_plus86", 
      "inputs": [[867, 2, 0], [875, 0, 0]]
    }, 
    {
      "op": "Activation", 
      "name": "gru_0t28__h_act", 
      "attrs": {"act_type": "tanh"}, 
      "inputs": [[876, 0, 0]]
    }, 
    {
      "op": "elemwise_mul", 
      "name": "_mul85", 
      "inputs": [[872, 0, 0], [877, 0, 0]]
    }, 
    {
      "op": "elemwise_mul", 
      "name": "_mul86", 
      "inputs": [[871, 0, 0], [850, 0, 0]]
    }, 
    {
      "op": "elemwise_add", 
      "name": "gru_0t28_out", 
      "inputs": [[878, 0, 0], [879, 0, 0]]
    }, 
    {
      "op": "FullyConnected", 
      "name": "gru_1t28__i2h", 
      "attrs": {"num_hidden": "768"}, 
      "inputs": [[880, 0, 0], [36, 0, 0], [37, 0, 0]]
    }, 
    {
      "op": "SliceChannel", 
      "name": "gru_1t28__i2h_slice", 
      "attrs": {"num_outputs": "3"}, 
      "inputs": [[881, 0, 0]]
    }, 
    {
      "op": "FullyConnected", 
      "name": "gru_1t28__h2h", 
      "attrs": {"num_hidden": "768"}, 
      "inputs": [[865, 0, 0], [41, 0, 0], [42, 0, 0]]
    }, 
    {
      "op": "SliceChannel", 
      "name": "gru_1t28__h2h_slice", 
      "attrs": {"num_outputs": "3"}, 
      "inputs": [[883, 0, 0]]
    }, 
    {
      "op": "elemwise_add", 
      "name": "_plus682", 
      "inputs": [[882, 1, 0], [884, 1, 0]]
    }, 
    {
      "op": "Activation", 
      "name": "gru_1t28__z_act", 
      "attrs": {"act_type": "sigmoid"}, 
      "inputs": [[885, 0, 0]]
    }, 
    {
      "op": "_rminus_scalar", 
      "name": "_rminusscalar227", 
      "attrs": {"scalar": "1.0"}, 
      "inputs": [[886, 0, 0]]
    }, 
    {
      "op": "elemwise_add", 
      "name": "_plus681", 
      "inputs": [[882, 0, 0], [884, 0, 0]]
    }, 
    {
      "op": "Activation", 
      "name": "gru_1t28__r_act", 
      "attrs": {"act_type": "sigmoid"}, 
      "inputs": [[888, 0, 0]]
    }, 
    {
      "op": "elemwise_mul", 
      "name": "_mul681", 
      "inputs": [[889, 0, 0], [884, 2, 0]]
    }, 
    {
      "op": "elemwise_add", 
      "name": "_plus683", 
      "inputs": [[882, 2, 0], [890, 0, 0]]
    }, 
    {
      "op": "Activation", 
      "name": "gru_1t28__h_act", 
      "attrs": {"act_type": "tanh"}, 
      "inputs": [[891, 0, 0]]
    }, 
    {
      "op": "elemwise_mul", 
      "name": "_mul682", 
      "inputs": [[887, 0, 0], [892, 0, 0]]
    }, 
    {
      "op": "elemwise_mul", 
      "name": "_mul683", 
      "inputs": [[886, 0, 0], [865, 0, 0]]
    }, 
    {
      "op": "elemwise_add", 
      "name": "gru_1t28_out", 
      "inputs": [[893, 0, 0], [894, 0, 0]]
    }, 
    {
      "op": "FullyConnected", 
      "name": "gru_0t29__i2h", 
      "attrs": {"num_hidden": "768"}, 
      "inputs": [[15, 29, 0], [16, 0, 0], [17, 0, 0]]
    }, 
    {
      "op": "SliceChannel", 
      "name": "gru_0t29__i2h_slice", 
      "attrs": {"num_outputs": "3"}, 
      "inputs": [[896, 0, 0]]
    }, 
    {
      "op": "FullyConnected", 
      "name": "gru_0t29__h2h", 
      "attrs": {"num_hidden": "768"}, 
      "inputs": [[880, 0, 0], [21, 0, 0], [22, 0, 0]]
    }, 
    {
      "op": "SliceChannel", 
      "name": "gru_0t29__h2h_slice", 
      "attrs": {"num_outputs": "3"}, 
      "inputs": [[898, 0, 0]]
    }, 
    {
      "op": "elemwise_add", 
      "name": "_plus88", 
      "inputs": [[897, 1, 0], [899, 1, 0]]
    }, 
    {
      "op": "Activation", 
      "name": "gru_0t29__z_act", 
      "attrs": {"act_type": "sigmoid"}, 
      "inputs": [[900, 0, 0]]
    }, 
    {
      "op": "_rminus_scalar", 
      "name": "_rminusscalar29", 
      "attrs": {"scalar": "1.0"}, 
      "inputs": [[901, 0, 0]]
    }, 
    {
      "op": "elemwise_add", 
      "name": "_plus87", 
      "inputs": [[897, 0, 0], [899, 0, 0]]
    }, 
    {
      "op": "Activation", 
      "name": "gru_0t29__r_act", 
      "attrs": {"act_type": "sigmoid"}, 
      "inputs": [[903, 0, 0]]
    }, 
    {
      "op": "elemwise_mul", 
      "name": "_mul87", 
      "inputs": [[904, 0, 0], [899, 2, 0]]
    }, 
    {
      "op": "elemwise_add", 
      "name": "_plus89", 
      "inputs": [[897, 2, 0], [905, 0, 0]]
    }, 
    {
      "op": "Activation", 
      "name": "gru_0t29__h_act", 
      "attrs": {"act_type": "tanh"}, 
      "inputs": [[906, 0, 0]]
    }, 
    {
      "op": "elemwise_mul", 
      "name": "_mul88", 
      "inputs": [[902, 0, 0], [907, 0, 0]]
    }, 
    {
      "op": "elemwise_mul", 
      "name": "_mul89", 
      "inputs": [[901, 0, 0], [880, 0, 0]]
    }, 
    {
      "op": "elemwise_add", 
      "name": "gru_0t29_out", 
      "inputs": [[908, 0, 0], [909, 0, 0]]
    }, 
    {
      "op": "FullyConnected", 
      "name": "gru_1t29__i2h", 
      "attrs": {"num_hidden": "768"}, 
      "inputs": [[910, 0, 0], [36, 0, 0], [37, 0, 0]]
    }, 
    {
      "op": "SliceChannel", 
      "name": "gru_1t29__i2h_slice", 
      "attrs": {"num_outputs": "3"}, 
      "inputs": [[911, 0, 0]]
    }, 
    {
      "op": "FullyConnected", 
      "name": "gru_1t29__h2h", 
      "attrs": {"num_hidden": "768"}, 
      "inputs": [[895, 0, 0], [41, 0, 0], [42, 0, 0]]
    }, 
    {
      "op": "SliceChannel", 
      "name": "gru_1t29__h2h_slice", 
      "attrs": {"num_outputs": "3"}, 
      "inputs": [[913, 0, 0]]
    }, 
    {
      "op": "elemwise_add", 
      "name": "_plus685", 
      "inputs": [[912, 1, 0], [914, 1, 0]]
    }, 
    {
      "op": "Activation", 
      "name": "gru_1t29__z_act", 
      "attrs": {"act_type": "sigmoid"}, 
      "inputs": [[915, 0, 0]]
    }, 
    {
      "op": "_rminus_scalar", 
      "name": "_rminusscalar228", 
      "attrs": {"scalar": "1.0"}, 
      "inputs": [[916, 0, 0]]
    }, 
    {
      "op": "elemwise_add", 
      "name": "_plus684", 
      "inputs": [[912, 0, 0], [914, 0, 0]]
    }, 
    {
      "op": "Activation", 
      "name": "gru_1t29__r_act", 
      "attrs": {"act_type": "sigmoid"}, 
      "inputs": [[918, 0, 0]]
    }, 
    {
      "op": "elemwise_mul", 
      "name": "_mul684", 
      "inputs": [[919, 0, 0], [914, 2, 0]]
    }, 
    {
      "op": "elemwise_add", 
      "name": "_plus686", 
      "inputs": [[912, 2, 0], [920, 0, 0]]
    }, 
    {
      "op": "Activation", 
      "name": "gru_1t29__h_act", 
      "attrs": {"act_type": "tanh"}, 
      "inputs": [[921, 0, 0]]
    }, 
    {
      "op": "elemwise_mul", 
      "name": "_mul685", 
      "inputs": [[917, 0, 0], [922, 0, 0]]
    }, 
    {
      "op": "elemwise_mul", 
      "name": "_mul686", 
      "inputs": [[916, 0, 0], [895, 0, 0]]
    }, 
    {
      "op": "elemwise_add", 
      "name": "gru_1t29_out", 
      "inputs": [[923, 0, 0], [924, 0, 0]]
    }, 
    {
      "op": "FullyConnected", 
      "name": "gru_0t30__i2h", 
      "attrs": {"num_hidden": "768"}, 
      "inputs": [[15, 30, 0], [16, 0, 0], [17, 0, 0]]
    }, 
    {
      "op": "SliceChannel", 
      "name": "gru_0t30__i2h_slice", 
      "attrs": {"num_outputs": "3"}, 
      "inputs": [[926, 0, 0]]
    }, 
    {
      "op": "FullyConnected", 
      "name": "gru_0t30__h2h", 
      "attrs": {"num_hidden": "768"}, 
      "inputs": [[910, 0, 0], [21, 0, 0], [22, 0, 0]]
    }, 
    {
      "op": "SliceChannel", 
      "name": "gru_0t30__h2h_slice", 
      "attrs": {"num_outputs": "3"}, 
      "inputs": [[928, 0, 0]]
    }, 
    {
      "op": "elemwise_add", 
      "name": "_plus91", 
      "inputs": [[927, 1, 0], [929, 1, 0]]
    }, 
    {
      "op": "Activation", 
      "name": "gru_0t30__z_act", 
      "attrs": {"act_type": "sigmoid"}, 
      "inputs": [[930, 0, 0]]
    }, 
    {
      "op": "_rminus_scalar", 
      "name": "_rminusscalar30", 
      "attrs": {"scalar": "1.0"}, 
      "inputs": [[931, 0, 0]]
    }, 
    {
      "op": "elemwise_add", 
      "name": "_plus90", 
      "inputs": [[927, 0, 0], [929, 0, 0]]
    }, 
    {
      "op": "Activation", 
      "name": "gru_0t30__r_act", 
      "attrs": {"act_type": "sigmoid"}, 
      "inputs": [[933, 0, 0]]
    }, 
    {
      "op": "elemwise_mul", 
      "name": "_mul90", 
      "inputs": [[934, 0, 0], [929, 2, 0]]
    }, 
    {
      "op": "elemwise_add", 
      "name": "_plus92", 
      "inputs": [[927, 2, 0], [935, 0, 0]]
    }, 
    {
      "op": "Activation", 
      "name": "gru_0t30__h_act", 
      "attrs": {"act_type": "tanh"}, 
      "inputs": [[936, 0, 0]]
    }, 
    {
      "op": "elemwise_mul", 
      "name": "_mul91", 
      "inputs": [[932, 0, 0], [937, 0, 0]]
    }, 
    {
      "op": "elemwise_mul", 
      "name": "_mul92", 
      "inputs": [[931, 0, 0], [910, 0, 0]]
    }, 
    {
      "op": "elemwise_add", 
      "name": "gru_0t30_out", 
      "inputs": [[938, 0, 0], [939, 0, 0]]
    }, 
    {
      "op": "FullyConnected", 
      "name": "gru_1t30__i2h", 
      "attrs": {"num_hidden": "768"}, 
      "inputs": [[940, 0, 0], [36, 0, 0], [37, 0, 0]]
    }, 
    {
      "op": "SliceChannel", 
      "name": "gru_1t30__i2h_slice", 
      "attrs": {"num_outputs": "3"}, 
      "inputs": [[941, 0, 0]]
    }, 
    {
      "op": "FullyConnected", 
      "name": "gru_1t30__h2h", 
      "attrs": {"num_hidden": "768"}, 
      "inputs": [[925, 0, 0], [41, 0, 0], [42, 0, 0]]
    }, 
    {
      "op": "SliceChannel", 
      "name": "gru_1t30__h2h_slice", 
      "attrs": {"num_outputs": "3"}, 
      "inputs": [[943, 0, 0]]
    }, 
    {
      "op": "elemwise_add", 
      "name": "_plus688", 
      "inputs": [[942, 1, 0], [944, 1, 0]]
    }, 
    {
      "op": "Activation", 
      "name": "gru_1t30__z_act", 
      "attrs": {"act_type": "sigmoid"}, 
      "inputs": [[945, 0, 0]]
    }, 
    {
      "op": "_rminus_scalar", 
      "name": "_rminusscalar229", 
      "attrs": {"scalar": "1.0"}, 
      "inputs": [[946, 0, 0]]
    }, 
    {
      "op": "elemwise_add", 
      "name": "_plus687", 
      "inputs": [[942, 0, 0], [944, 0, 0]]
    }, 
    {
      "op": "Activation", 
      "name": "gru_1t30__r_act", 
      "attrs": {"act_type": "sigmoid"}, 
      "inputs": [[948, 0, 0]]
    }, 
    {
      "op": "elemwise_mul", 
      "name": "_mul687", 
      "inputs": [[949, 0, 0], [944, 2, 0]]
    }, 
    {
      "op": "elemwise_add", 
      "name": "_plus689", 
      "inputs": [[942, 2, 0], [950, 0, 0]]
    }, 
    {
      "op": "Activation", 
      "name": "gru_1t30__h_act", 
      "attrs": {"act_type": "tanh"}, 
      "inputs": [[951, 0, 0]]
    }, 
    {
      "op": "elemwise_mul", 
      "name": "_mul688", 
      "inputs": [[947, 0, 0], [952, 0, 0]]
    }, 
    {
      "op": "elemwise_mul", 
      "name": "_mul689", 
      "inputs": [[946, 0, 0], [925, 0, 0]]
    }, 
    {
      "op": "elemwise_add", 
      "name": "gru_1t30_out", 
      "inputs": [[953, 0, 0], [954, 0, 0]]
    }, 
    {
      "op": "FullyConnected", 
      "name": "gru_0t31__i2h", 
      "attrs": {"num_hidden": "768"}, 
      "inputs": [[15, 31, 0], [16, 0, 0], [17, 0, 0]]
    }, 
    {
      "op": "SliceChannel", 
      "name": "gru_0t31__i2h_slice", 
      "attrs": {"num_outputs": "3"}, 
      "inputs": [[956, 0, 0]]
    }, 
    {
      "op": "FullyConnected", 
      "name": "gru_0t31__h2h", 
      "attrs": {"num_hidden": "768"}, 
      "inputs": [[940, 0, 0], [21, 0, 0], [22, 0, 0]]
    }, 
    {
      "op": "SliceChannel", 
      "name": "gru_0t31__h2h_slice", 
      "attrs": {"num_outputs": "3"}, 
      "inputs": [[958, 0, 0]]
    }, 
    {
      "op": "elemwise_add", 
      "name": "_plus94", 
      "inputs": [[957, 1, 0], [959, 1, 0]]
    }, 
    {
      "op": "Activation", 
      "name": "gru_0t31__z_act", 
      "attrs": {"act_type": "sigmoid"}, 
      "inputs": [[960, 0, 0]]
    }, 
    {
      "op": "_rminus_scalar", 
      "name": "_rminusscalar31", 
      "attrs": {"scalar": "1.0"}, 
      "inputs": [[961, 0, 0]]
    }, 
    {
      "op": "elemwise_add", 
      "name": "_plus93", 
      "inputs": [[957, 0, 0], [959, 0, 0]]
    }, 
    {
      "op": "Activation", 
      "name": "gru_0t31__r_act", 
      "attrs": {"act_type": "sigmoid"}, 
      "inputs": [[963, 0, 0]]
    }, 
    {
      "op": "elemwise_mul", 
      "name": "_mul93", 
      "inputs": [[964, 0, 0], [959, 2, 0]]
    }, 
    {
      "op": "elemwise_add", 
      "name": "_plus95", 
      "inputs": [[957, 2, 0], [965, 0, 0]]
    }, 
    {
      "op": "Activation", 
      "name": "gru_0t31__h_act", 
      "attrs": {"act_type": "tanh"}, 
      "inputs": [[966, 0, 0]]
    }, 
    {
      "op": "elemwise_mul", 
      "name": "_mul94", 
      "inputs": [[962, 0, 0], [967, 0, 0]]
    }, 
    {
      "op": "elemwise_mul", 
      "name": "_mul95", 
      "inputs": [[961, 0, 0], [940, 0, 0]]
    }, 
    {
      "op": "elemwise_add", 
      "name": "gru_0t31_out", 
      "inputs": [[968, 0, 0], [969, 0, 0]]
    }, 
    {
      "op": "FullyConnected", 
      "name": "gru_1t31__i2h", 
      "attrs": {"num_hidden": "768"}, 
      "inputs": [[970, 0, 0], [36, 0, 0], [37, 0, 0]]
    }, 
    {
      "op": "SliceChannel", 
      "name": "gru_1t31__i2h_slice", 
      "attrs": {"num_outputs": "3"}, 
      "inputs": [[971, 0, 0]]
    }, 
    {
      "op": "FullyConnected", 
      "name": "gru_1t31__h2h", 
      "attrs": {"num_hidden": "768"}, 
      "inputs": [[955, 0, 0], [41, 0, 0], [42, 0, 0]]
    }, 
    {
      "op": "SliceChannel", 
      "name": "gru_1t31__h2h_slice", 
      "attrs": {"num_outputs": "3"}, 
      "inputs": [[973, 0, 0]]
    }, 
    {
      "op": "elemwise_add", 
      "name": "_plus691", 
      "inputs": [[972, 1, 0], [974, 1, 0]]
    }, 
    {
      "op": "Activation", 
      "name": "gru_1t31__z_act", 
      "attrs": {"act_type": "sigmoid"}, 
      "inputs": [[975, 0, 0]]
    }, 
    {
      "op": "_rminus_scalar", 
      "name": "_rminusscalar230", 
      "attrs": {"scalar": "1.0"}, 
      "inputs": [[976, 0, 0]]
    }, 
    {
      "op": "elemwise_add", 
      "name": "_plus690", 
      "inputs": [[972, 0, 0], [974, 0, 0]]
    }, 
    {
      "op": "Activation", 
      "name": "gru_1t31__r_act", 
      "attrs": {"act_type": "sigmoid"}, 
      "inputs": [[978, 0, 0]]
    }, 
    {
      "op": "elemwise_mul", 
      "name": "_mul690", 
      "inputs": [[979, 0, 0], [974, 2, 0]]
    }, 
    {
      "op": "elemwise_add", 
      "name": "_plus692", 
      "inputs": [[972, 2, 0], [980, 0, 0]]
    }, 
    {
      "op": "Activation", 
      "name": "gru_1t31__h_act", 
      "attrs": {"act_type": "tanh"}, 
      "inputs": [[981, 0, 0]]
    }, 
    {
      "op": "elemwise_mul", 
      "name": "_mul691", 
      "inputs": [[977, 0, 0], [982, 0, 0]]
    }, 
    {
      "op": "elemwise_mul", 
      "name": "_mul692", 
      "inputs": [[976, 0, 0], [955, 0, 0]]
    }, 
    {
      "op": "elemwise_add", 
      "name": "gru_1t31_out", 
      "inputs": [[983, 0, 0], [984, 0, 0]]
    }, 
    {
      "op": "FullyConnected", 
      "name": "gru_0t32__i2h", 
      "attrs": {"num_hidden": "768"}, 
      "inputs": [[15, 32, 0], [16, 0, 0], [17, 0, 0]]
    }, 
    {
      "op": "SliceChannel", 
      "name": "gru_0t32__i2h_slice", 
      "attrs": {"num_outputs": "3"}, 
      "inputs": [[986, 0, 0]]
    }, 
    {
      "op": "FullyConnected", 
      "name": "gru_0t32__h2h", 
      "attrs": {"num_hidden": "768"}, 
      "inputs": [[970, 0, 0], [21, 0, 0], [22, 0, 0]]
    }, 
    {
      "op": "SliceChannel", 
      "name": "gru_0t32__h2h_slice", 
      "attrs": {"num_outputs": "3"}, 
      "inputs": [[988, 0, 0]]
    }, 
    {
      "op": "elemwise_add", 
      "name": "_plus97", 
      "inputs": [[987, 1, 0], [989, 1, 0]]
    }, 
    {
      "op": "Activation", 
      "name": "gru_0t32__z_act", 
      "attrs": {"act_type": "sigmoid"}, 
      "inputs": [[990, 0, 0]]
    }, 
    {
      "op": "_rminus_scalar", 
      "name": "_rminusscalar32", 
      "attrs": {"scalar": "1.0"}, 
      "inputs": [[991, 0, 0]]
    }, 
    {
      "op": "elemwise_add", 
      "name": "_plus96", 
      "inputs": [[987, 0, 0], [989, 0, 0]]
    }, 
    {
      "op": "Activation", 
      "name": "gru_0t32__r_act", 
      "attrs": {"act_type": "sigmoid"}, 
      "inputs": [[993, 0, 0]]
    }, 
    {
      "op": "elemwise_mul", 
      "name": "_mul96", 
      "inputs": [[994, 0, 0], [989, 2, 0]]
    }, 
    {
      "op": "elemwise_add", 
      "name": "_plus98", 
      "inputs": [[987, 2, 0], [995, 0, 0]]
    }, 
    {
      "op": "Activation", 
      "name": "gru_0t32__h_act", 
      "attrs": {"act_type": "tanh"}, 
      "inputs": [[996, 0, 0]]
    }, 
    {
      "op": "elemwise_mul", 
      "name": "_mul97", 
      "inputs": [[992, 0, 0], [997, 0, 0]]
    }, 
    {
      "op": "elemwise_mul", 
      "name": "_mul98", 
      "inputs": [[991, 0, 0], [970, 0, 0]]
    }, 
    {
      "op": "elemwise_add", 
      "name": "gru_0t32_out", 
      "inputs": [[998, 0, 0], [999, 0, 0]]
    }, 
    {
      "op": "FullyConnected", 
      "name": "gru_1t32__i2h", 
      "attrs": {"num_hidden": "768"}, 
      "inputs": [[1000, 0, 0], [36, 0, 0], [37, 0, 0]]
    }, 
    {
      "op": "SliceChannel", 
      "name": "gru_1t32__i2h_slice", 
      "attrs": {"num_outputs": "3"}, 
      "inputs": [[1001, 0, 0]]
    }, 
    {
      "op": "FullyConnected", 
      "name": "gru_1t32__h2h", 
      "attrs": {"num_hidden": "768"}, 
      "inputs": [[985, 0, 0], [41, 0, 0], [42, 0, 0]]
    }, 
    {
      "op": "SliceChannel", 
      "name": "gru_1t32__h2h_slice", 
      "attrs": {"num_outputs": "3"}, 
      "inputs": [[1003, 0, 0]]
    }, 
    {
      "op": "elemwise_add", 
      "name": "_plus694", 
      "inputs": [[1002, 1, 0], [1004, 1, 0]]
    }, 
    {
      "op": "Activation", 
      "name": "gru_1t32__z_act", 
      "attrs": {"act_type": "sigmoid"}, 
      "inputs": [[1005, 0, 0]]
    }, 
    {
      "op": "_rminus_scalar", 
      "name": "_rminusscalar231", 
      "attrs": {"scalar": "1.0"}, 
      "inputs": [[1006, 0, 0]]
    }, 
    {
      "op": "elemwise_add", 
      "name": "_plus693", 
      "inputs": [[1002, 0, 0], [1004, 0, 0]]
    }, 
    {
      "op": "Activation", 
      "name": "gru_1t32__r_act", 
      "attrs": {"act_type": "sigmoid"}, 
      "inputs": [[1008, 0, 0]]
    }, 
    {
      "op": "elemwise_mul", 
      "name": "_mul693", 
      "inputs": [[1009, 0, 0], [1004, 2, 0]]
    }, 
    {
      "op": "elemwise_add", 
      "name": "_plus695", 
      "inputs": [[1002, 2, 0], [1010, 0, 0]]
    }, 
    {
      "op": "Activation", 
      "name": "gru_1t32__h_act", 
      "attrs": {"act_type": "tanh"}, 
      "inputs": [[1011, 0, 0]]
    }, 
    {
      "op": "elemwise_mul", 
      "name": "_mul694", 
      "inputs": [[1007, 0, 0], [1012, 0, 0]]
    }, 
    {
      "op": "elemwise_mul", 
      "name": "_mul695", 
      "inputs": [[1006, 0, 0], [985, 0, 0]]
    }, 
    {
      "op": "elemwise_add", 
      "name": "gru_1t32_out", 
      "inputs": [[1013, 0, 0], [1014, 0, 0]]
    }, 
    {
      "op": "FullyConnected", 
      "name": "gru_0t33__i2h", 
      "attrs": {"num_hidden": "768"}, 
      "inputs": [[15, 33, 0], [16, 0, 0], [17, 0, 0]]
    }, 
    {
      "op": "SliceChannel", 
      "name": "gru_0t33__i2h_slice", 
      "attrs": {"num_outputs": "3"}, 
      "inputs": [[1016, 0, 0]]
    }, 
    {
      "op": "FullyConnected", 
      "name": "gru_0t33__h2h", 
      "attrs": {"num_hidden": "768"}, 
      "inputs": [[1000, 0, 0], [21, 0, 0], [22, 0, 0]]
    }, 
    {
      "op": "SliceChannel", 
      "name": "gru_0t33__h2h_slice", 
      "attrs": {"num_outputs": "3"}, 
      "inputs": [[1018, 0, 0]]
    }, 
    {
      "op": "elemwise_add", 
      "name": "_plus100", 
      "inputs": [[1017, 1, 0], [1019, 1, 0]]
    }, 
    {
      "op": "Activation", 
      "name": "gru_0t33__z_act", 
      "attrs": {"act_type": "sigmoid"}, 
      "inputs": [[1020, 0, 0]]
    }, 
    {
      "op": "_rminus_scalar", 
      "name": "_rminusscalar33", 
      "attrs": {"scalar": "1.0"}, 
      "inputs": [[1021, 0, 0]]
    }, 
    {
      "op": "elemwise_add", 
      "name": "_plus99", 
      "inputs": [[1017, 0, 0], [1019, 0, 0]]
    }, 
    {
      "op": "Activation", 
      "name": "gru_0t33__r_act", 
      "attrs": {"act_type": "sigmoid"}, 
      "inputs": [[1023, 0, 0]]
    }, 
    {
      "op": "elemwise_mul", 
      "name": "_mul99", 
      "inputs": [[1024, 0, 0], [1019, 2, 0]]
    }, 
    {
      "op": "elemwise_add", 
      "name": "_plus101", 
      "inputs": [[1017, 2, 0], [1025, 0, 0]]
    }, 
    {
      "op": "Activation", 
      "name": "gru_0t33__h_act", 
      "attrs": {"act_type": "tanh"}, 
      "inputs": [[1026, 0, 0]]
    }, 
    {
      "op": "elemwise_mul", 
      "name": "_mul100", 
      "inputs": [[1022, 0, 0], [1027, 0, 0]]
    }, 
    {
      "op": "elemwise_mul", 
      "name": "_mul101", 
      "inputs": [[1021, 0, 0], [1000, 0, 0]]
    }, 
    {
      "op": "elemwise_add", 
      "name": "gru_0t33_out", 
      "inputs": [[1028, 0, 0], [1029, 0, 0]]
    }, 
    {
      "op": "FullyConnected", 
      "name": "gru_1t33__i2h", 
      "attrs": {"num_hidden": "768"}, 
      "inputs": [[1030, 0, 0], [36, 0, 0], [37, 0, 0]]
    }, 
    {
      "op": "SliceChannel", 
      "name": "gru_1t33__i2h_slice", 
      "attrs": {"num_outputs": "3"}, 
      "inputs": [[1031, 0, 0]]
    }, 
    {
      "op": "FullyConnected", 
      "name": "gru_1t33__h2h", 
      "attrs": {"num_hidden": "768"}, 
      "inputs": [[1015, 0, 0], [41, 0, 0], [42, 0, 0]]
    }, 
    {
      "op": "SliceChannel", 
      "name": "gru_1t33__h2h_slice", 
      "attrs": {"num_outputs": "3"}, 
      "inputs": [[1033, 0, 0]]
    }, 
    {
      "op": "elemwise_add", 
      "name": "_plus697", 
      "inputs": [[1032, 1, 0], [1034, 1, 0]]
    }, 
    {
      "op": "Activation", 
      "name": "gru_1t33__z_act", 
      "attrs": {"act_type": "sigmoid"}, 
      "inputs": [[1035, 0, 0]]
    }, 
    {
      "op": "_rminus_scalar", 
      "name": "_rminusscalar232", 
      "attrs": {"scalar": "1.0"}, 
      "inputs": [[1036, 0, 0]]
    }, 
    {
      "op": "elemwise_add", 
      "name": "_plus696", 
      "inputs": [[1032, 0, 0], [1034, 0, 0]]
    }, 
    {
      "op": "Activation", 
      "name": "gru_1t33__r_act", 
      "attrs": {"act_type": "sigmoid"}, 
      "inputs": [[1038, 0, 0]]
    }, 
    {
      "op": "elemwise_mul", 
      "name": "_mul696", 
      "inputs": [[1039, 0, 0], [1034, 2, 0]]
    }, 
    {
      "op": "elemwise_add", 
      "name": "_plus698", 
      "inputs": [[1032, 2, 0], [1040, 0, 0]]
    }, 
    {
      "op": "Activation", 
      "name": "gru_1t33__h_act", 
      "attrs": {"act_type": "tanh"}, 
      "inputs": [[1041, 0, 0]]
    }, 
    {
      "op": "elemwise_mul", 
      "name": "_mul697", 
      "inputs": [[1037, 0, 0], [1042, 0, 0]]
    }, 
    {
      "op": "elemwise_mul", 
      "name": "_mul698", 
      "inputs": [[1036, 0, 0], [1015, 0, 0]]
    }, 
    {
      "op": "elemwise_add", 
      "name": "gru_1t33_out", 
      "inputs": [[1043, 0, 0], [1044, 0, 0]]
    }, 
    {
      "op": "FullyConnected", 
      "name": "gru_0t34__i2h", 
      "attrs": {"num_hidden": "768"}, 
      "inputs": [[15, 34, 0], [16, 0, 0], [17, 0, 0]]
    }, 
    {
      "op": "SliceChannel", 
      "name": "gru_0t34__i2h_slice", 
      "attrs": {"num_outputs": "3"}, 
      "inputs": [[1046, 0, 0]]
    }, 
    {
      "op": "FullyConnected", 
      "name": "gru_0t34__h2h", 
      "attrs": {"num_hidden": "768"}, 
      "inputs": [[1030, 0, 0], [21, 0, 0], [22, 0, 0]]
    }, 
    {
      "op": "SliceChannel", 
      "name": "gru_0t34__h2h_slice", 
      "attrs": {"num_outputs": "3"}, 
      "inputs": [[1048, 0, 0]]
    }, 
    {
      "op": "elemwise_add", 
      "name": "_plus103", 
      "inputs": [[1047, 1, 0], [1049, 1, 0]]
    }, 
    {
      "op": "Activation", 
      "name": "gru_0t34__z_act", 
      "attrs": {"act_type": "sigmoid"}, 
      "inputs": [[1050, 0, 0]]
    }, 
    {
      "op": "_rminus_scalar", 
      "name": "_rminusscalar34", 
      "attrs": {"scalar": "1.0"}, 
      "inputs": [[1051, 0, 0]]
    }, 
    {
      "op": "elemwise_add", 
      "name": "_plus102", 
      "inputs": [[1047, 0, 0], [1049, 0, 0]]
    }, 
    {
      "op": "Activation", 
      "name": "gru_0t34__r_act", 
      "attrs": {"act_type": "sigmoid"}, 
      "inputs": [[1053, 0, 0]]
    }, 
    {
      "op": "elemwise_mul", 
      "name": "_mul102", 
      "inputs": [[1054, 0, 0], [1049, 2, 0]]
    }, 
    {
      "op": "elemwise_add", 
      "name": "_plus104", 
      "inputs": [[1047, 2, 0], [1055, 0, 0]]
    }, 
    {
      "op": "Activation", 
      "name": "gru_0t34__h_act", 
      "attrs": {"act_type": "tanh"}, 
      "inputs": [[1056, 0, 0]]
    }, 
    {
      "op": "elemwise_mul", 
      "name": "_mul103", 
      "inputs": [[1052, 0, 0], [1057, 0, 0]]
    }, 
    {
      "op": "elemwise_mul", 
      "name": "_mul104", 
      "inputs": [[1051, 0, 0], [1030, 0, 0]]
    }, 
    {
      "op": "elemwise_add", 
      "name": "gru_0t34_out", 
      "inputs": [[1058, 0, 0], [1059, 0, 0]]
    }, 
    {
      "op": "FullyConnected", 
      "name": "gru_1t34__i2h", 
      "attrs": {"num_hidden": "768"}, 
      "inputs": [[1060, 0, 0], [36, 0, 0], [37, 0, 0]]
    }, 
    {
      "op": "SliceChannel", 
      "name": "gru_1t34__i2h_slice", 
      "attrs": {"num_outputs": "3"}, 
      "inputs": [[1061, 0, 0]]
    }, 
    {
      "op": "FullyConnected", 
      "name": "gru_1t34__h2h", 
      "attrs": {"num_hidden": "768"}, 
      "inputs": [[1045, 0, 0], [41, 0, 0], [42, 0, 0]]
    }, 
    {
      "op": "SliceChannel", 
      "name": "gru_1t34__h2h_slice", 
      "attrs": {"num_outputs": "3"}, 
      "inputs": [[1063, 0, 0]]
    }, 
    {
      "op": "elemwise_add", 
      "name": "_plus700", 
      "inputs": [[1062, 1, 0], [1064, 1, 0]]
    }, 
    {
      "op": "Activation", 
      "name": "gru_1t34__z_act", 
      "attrs": {"act_type": "sigmoid"}, 
      "inputs": [[1065, 0, 0]]
    }, 
    {
      "op": "_rminus_scalar", 
      "name": "_rminusscalar233", 
      "attrs": {"scalar": "1.0"}, 
      "inputs": [[1066, 0, 0]]
    }, 
    {
      "op": "elemwise_add", 
      "name": "_plus699", 
      "inputs": [[1062, 0, 0], [1064, 0, 0]]
    }, 
    {
      "op": "Activation", 
      "name": "gru_1t34__r_act", 
      "attrs": {"act_type": "sigmoid"}, 
      "inputs": [[1068, 0, 0]]
    }, 
    {
      "op": "elemwise_mul", 
      "name": "_mul699", 
      "inputs": [[1069, 0, 0], [1064, 2, 0]]
    }, 
    {
      "op": "elemwise_add", 
      "name": "_plus701", 
      "inputs": [[1062, 2, 0], [1070, 0, 0]]
    }, 
    {
      "op": "Activation", 
      "name": "gru_1t34__h_act", 
      "attrs": {"act_type": "tanh"}, 
      "inputs": [[1071, 0, 0]]
    }, 
    {
      "op": "elemwise_mul", 
      "name": "_mul700", 
      "inputs": [[1067, 0, 0], [1072, 0, 0]]
    }, 
    {
      "op": "elemwise_mul", 
      "name": "_mul701", 
      "inputs": [[1066, 0, 0], [1045, 0, 0]]
    }, 
    {
      "op": "elemwise_add", 
      "name": "gru_1t34_out", 
      "inputs": [[1073, 0, 0], [1074, 0, 0]]
    }, 
    {
      "op": "FullyConnected", 
      "name": "gru_0t35__i2h", 
      "attrs": {"num_hidden": "768"}, 
      "inputs": [[15, 35, 0], [16, 0, 0], [17, 0, 0]]
    }, 
    {
      "op": "SliceChannel", 
      "name": "gru_0t35__i2h_slice", 
      "attrs": {"num_outputs": "3"}, 
      "inputs": [[1076, 0, 0]]
    }, 
    {
      "op": "FullyConnected", 
      "name": "gru_0t35__h2h", 
      "attrs": {"num_hidden": "768"}, 
      "inputs": [[1060, 0, 0], [21, 0, 0], [22, 0, 0]]
    }, 
    {
      "op": "SliceChannel", 
      "name": "gru_0t35__h2h_slice", 
      "attrs": {"num_outputs": "3"}, 
      "inputs": [[1078, 0, 0]]
    }, 
    {
      "op": "elemwise_add", 
      "name": "_plus106", 
      "inputs": [[1077, 1, 0], [1079, 1, 0]]
    }, 
    {
      "op": "Activation", 
      "name": "gru_0t35__z_act", 
      "attrs": {"act_type": "sigmoid"}, 
      "inputs": [[1080, 0, 0]]
    }, 
    {
      "op": "_rminus_scalar", 
      "name": "_rminusscalar35", 
      "attrs": {"scalar": "1.0"}, 
      "inputs": [[1081, 0, 0]]
    }, 
    {
      "op": "elemwise_add", 
      "name": "_plus105", 
      "inputs": [[1077, 0, 0], [1079, 0, 0]]
    }, 
    {
      "op": "Activation", 
      "name": "gru_0t35__r_act", 
      "attrs": {"act_type": "sigmoid"}, 
      "inputs": [[1083, 0, 0]]
    }, 
    {
      "op": "elemwise_mul", 
      "name": "_mul105", 
      "inputs": [[1084, 0, 0], [1079, 2, 0]]
    }, 
    {
      "op": "elemwise_add", 
      "name": "_plus107", 
      "inputs": [[1077, 2, 0], [1085, 0, 0]]
    }, 
    {
      "op": "Activation", 
      "name": "gru_0t35__h_act", 
      "attrs": {"act_type": "tanh"}, 
      "inputs": [[1086, 0, 0]]
    }, 
    {
      "op": "elemwise_mul", 
      "name": "_mul106", 
      "inputs": [[1082, 0, 0], [1087, 0, 0]]
    }, 
    {
      "op": "elemwise_mul", 
      "name": "_mul107", 
      "inputs": [[1081, 0, 0], [1060, 0, 0]]
    }, 
    {
      "op": "elemwise_add", 
      "name": "gru_0t35_out", 
      "inputs": [[1088, 0, 0], [1089, 0, 0]]
    }, 
    {
      "op": "FullyConnected", 
      "name": "gru_1t35__i2h", 
      "attrs": {"num_hidden": "768"}, 
      "inputs": [[1090, 0, 0], [36, 0, 0], [37, 0, 0]]
    }, 
    {
      "op": "SliceChannel", 
      "name": "gru_1t35__i2h_slice", 
      "attrs": {"num_outputs": "3"}, 
      "inputs": [[1091, 0, 0]]
    }, 
    {
      "op": "FullyConnected", 
      "name": "gru_1t35__h2h", 
      "attrs": {"num_hidden": "768"}, 
      "inputs": [[1075, 0, 0], [41, 0, 0], [42, 0, 0]]
    }, 
    {
      "op": "SliceChannel", 
      "name": "gru_1t35__h2h_slice", 
      "attrs": {"num_outputs": "3"}, 
      "inputs": [[1093, 0, 0]]
    }, 
    {
      "op": "elemwise_add", 
      "name": "_plus703", 
      "inputs": [[1092, 1, 0], [1094, 1, 0]]
    }, 
    {
      "op": "Activation", 
      "name": "gru_1t35__z_act", 
      "attrs": {"act_type": "sigmoid"}, 
      "inputs": [[1095, 0, 0]]
    }, 
    {
      "op": "_rminus_scalar", 
      "name": "_rminusscalar234", 
      "attrs": {"scalar": "1.0"}, 
      "inputs": [[1096, 0, 0]]
    }, 
    {
      "op": "elemwise_add", 
      "name": "_plus702", 
      "inputs": [[1092, 0, 0], [1094, 0, 0]]
    }, 
    {
      "op": "Activation", 
      "name": "gru_1t35__r_act", 
      "attrs": {"act_type": "sigmoid"}, 
      "inputs": [[1098, 0, 0]]
    }, 
    {
      "op": "elemwise_mul", 
      "name": "_mul702", 
      "inputs": [[1099, 0, 0], [1094, 2, 0]]
    }, 
    {
      "op": "elemwise_add", 
      "name": "_plus704", 
      "inputs": [[1092, 2, 0], [1100, 0, 0]]
    }, 
    {
      "op": "Activation", 
      "name": "gru_1t35__h_act", 
      "attrs": {"act_type": "tanh"}, 
      "inputs": [[1101, 0, 0]]
    }, 
    {
      "op": "elemwise_mul", 
      "name": "_mul703", 
      "inputs": [[1097, 0, 0], [1102, 0, 0]]
    }, 
    {
      "op": "elemwise_mul", 
      "name": "_mul704", 
      "inputs": [[1096, 0, 0], [1075, 0, 0]]
    }, 
    {
      "op": "elemwise_add", 
      "name": "gru_1t35_out", 
      "inputs": [[1103, 0, 0], [1104, 0, 0]]
    }, 
    {
      "op": "FullyConnected", 
      "name": "gru_0t36__i2h", 
      "attrs": {"num_hidden": "768"}, 
      "inputs": [[15, 36, 0], [16, 0, 0], [17, 0, 0]]
    }, 
    {
      "op": "SliceChannel", 
      "name": "gru_0t36__i2h_slice", 
      "attrs": {"num_outputs": "3"}, 
      "inputs": [[1106, 0, 0]]
    }, 
    {
      "op": "FullyConnected", 
      "name": "gru_0t36__h2h", 
      "attrs": {"num_hidden": "768"}, 
      "inputs": [[1090, 0, 0], [21, 0, 0], [22, 0, 0]]
    }, 
    {
      "op": "SliceChannel", 
      "name": "gru_0t36__h2h_slice", 
      "attrs": {"num_outputs": "3"}, 
      "inputs": [[1108, 0, 0]]
    }, 
    {
      "op": "elemwise_add", 
      "name": "_plus109", 
      "inputs": [[1107, 1, 0], [1109, 1, 0]]
    }, 
    {
      "op": "Activation", 
      "name": "gru_0t36__z_act", 
      "attrs": {"act_type": "sigmoid"}, 
      "inputs": [[1110, 0, 0]]
    }, 
    {
      "op": "_rminus_scalar", 
      "name": "_rminusscalar36", 
      "attrs": {"scalar": "1.0"}, 
      "inputs": [[1111, 0, 0]]
    }, 
    {
      "op": "elemwise_add", 
      "name": "_plus108", 
      "inputs": [[1107, 0, 0], [1109, 0, 0]]
    }, 
    {
      "op": "Activation", 
      "name": "gru_0t36__r_act", 
      "attrs": {"act_type": "sigmoid"}, 
      "inputs": [[1113, 0, 0]]
    }, 
    {
      "op": "elemwise_mul", 
      "name": "_mul108", 
      "inputs": [[1114, 0, 0], [1109, 2, 0]]
    }, 
    {
…
    2049, 
    2050, 
    2053, 
    2054, 
    2057, 
    2058, 
    2059, 
    2060, 
    2061, 
    2062, 
    2063, 
    2064, 
    2065, 
    2066, 
    2067, 
    2068, 
    2069, 
    2072, 
    2073, 
    2076, 
    2077, 
    2078, 
    2079, 
    2080, 
    2081, 
    2082, 
    2083, 
    2084, 
    2085, 
    2086, 
    2087, 
    2088, 
    2091, 
    2092, 
    2095, 
    2096, 
    2097, 
    2098, 
    2099, 
    2100, 
    2101, 
    2102, 
    2103, 
    2104, 
    2105, 
    2106, 
    2107, 
    2110, 
    2111, 
    2114, 
    2115, 
    2116, 
    2117, 
    2118, 
    2119, 
    2120, 
    2121, 
    2122, 
    2123, 
    2124, 
    2125, 
    2126, 
    2129, 
    2130, 
    2133, 
    2134, 
    2135, 
    2136, 
    2137, 
    2138, 
    2139, 
    2140, 
    2141, 
    2142, 
    2143, 
    2144, 
    2145, 
    2148, 
    2149, 
    2152, 
    2153, 
    2154, 
    2155, 
    2156, 
    2157, 
    2158, 
    2159, 
    2160, 
    2161, 
    2162, 
    2163, 
    2164, 
    2167, 
    2168, 
    2171, 
    2172, 
    2173, 
    2174, 
    2175, 
    2176, 
    2177, 
    2178, 
    2179, 
    2180, 
    2181, 
    2182, 
    2183, 
    2186, 
    2187, 
    2190, 
    2191, 
    2192, 
    2193, 
    2194, 
    2195, 
    2196, 
    2197, 
    2198, 
    2199, 
    2200, 
    2201, 
    2202, 
    2205, 
    2206, 
    2209, 
    2210, 
    2211, 
    2212, 
    2213, 
    2214, 
    2215, 
    2216, 
    2217, 
    2218, 
    2219, 
    2220, 
    2221, 
    2224, 
    2225, 
    2228, 
    2229, 
    2230, 
    2231, 
    2232, 
    2233, 
    2234, 
    2235, 
    2236, 
    2237, 
    2238, 
    2239, 
    2240, 
    2243, 
    2244, 
    2247, 
    2248, 
    2249, 
    2250, 
    2251, 
    2252, 
    2253, 
    2254, 
    2255, 
    2256, 
    2257, 
    2258, 
    2259, 
    2262, 
    2263, 
    2266, 
    2267, 
    2268, 
    2269, 
    2270, 
    2271, 
    2272, 
    2273, 
    2274, 
    2275, 
    2276, 
    2277, 
    2278, 
    2281, 
    2282, 
    2285, 
    2286, 
    2287, 
    2288, 
    2289, 
    2290, 
    2291, 
    2292, 
    2293, 
    2294, 
    2295, 
    2296, 
    2297, 
    2300, 
    2301, 
    2304, 
    2305, 
    2306, 
    2307, 
    2308, 
    2309, 
    2310, 
    2311, 
    2312, 
    2313, 
    2314, 
    2315, 
    2316, 
    2319, 
    2320, 
    2323, 
    2324, 
    2325, 
    2326, 
    2327, 
    2328, 
    2329, 
    2330, 
    2331, 
    2332, 
    2333, 
    2334, 
    2335, 
    2338, 
    2339, 
    2342, 
    2343, 
    2344, 
    2345, 
    2346, 
    2347, 
    2348, 
    2349, 
    2350, 
    2351, 
    2352, 
    2353, 
    2354, 
    2357, 
    2358, 
    2361, 
    2362, 
    2363, 
    2364, 
    2365, 
    2366, 
    2367, 
    2368, 
    2369, 
    2370, 
    2371, 
    2372, 
    2373, 
    2376, 
    2377, 
    2380, 
    2381, 
    2382, 
    2383, 
    2384, 
    2385, 
    2386, 
    2387, 
    2388, 
    2389, 
    2390, 
    2391, 
    2392, 
    2395, 
    2396, 
    2399, 
    2400, 
    2401, 
    2402, 
    2403, 
    2404, 
    2405, 
    2406, 
    2407, 
    2408, 
    2409, 
    2410, 
    2411, 
    2414, 
    2415, 
    2418, 
    2419, 
    2420, 
    2421, 
    2422, 
    2423, 
    2424, 
    2425, 
    2426, 
    2427, 
    2428, 
    2429, 
    2430, 
    2433, 
    2434, 
    2437, 
    2438, 
    2439, 
    2440, 
    2441, 
    2442, 
    2443, 
    2444, 
    2445, 
    2446, 
    2447, 
    2448, 
    2449, 
    2452, 
    2453, 
    2456, 
    2457, 
    2458, 
    2459, 
    2460, 
    2461, 
    2462, 
    2463, 
    2464, 
    2465, 
    2466, 
    2467, 
    2468, 
    2471, 
    2472, 
    2475, 
    2476, 
    2477, 
    2478, 
    2479, 
    2480, 
    2481, 
    2482, 
    2483, 
    2484, 
    2485, 
    2486, 
    2487, 
    2490, 
    2491, 
    2494, 
    2495, 
    2496, 
    2497, 
    2498, 
    2499, 
    2500, 
    2501, 
    2502, 
    2503, 
    2504, 
    2505, 
    2506, 
    2509, 
    2510, 
    2513, 
    2514, 
    2515, 
    2516, 
    2517, 
    2518, 
    2519, 
    2520, 
    2521, 
    2522, 
    2523, 
    2524, 
    2525, 
    2528, 
    2529, 
    2532, 
    2533, 
    2534, 
    2535, 
    2536, 
    2537, 
    2538, 
    2539, 
    2540, 
    2541, 
    2542, 
    2543, 
    2544, 
    2547, 
    2548, 
    2551, 
    2552, 
    2553, 
    2554, 
    2555, 
    2556, 
    2557, 
    2558, 
    2559, 
    2560, 
    2561, 
    2562, 
    2563, 
    2566, 
    2567, 
    2570, 
    2571, 
    2572, 
    2573, 
    2574, 
    2575, 
    2576, 
    2577, 
    2578, 
    2579, 
    2580, 
    2581, 
    2582, 
    2585, 
    2586, 
    2589, 
    2590, 
    2591, 
    2592, 
    2593, 
    2594, 
    2595, 
    2596, 
    2597, 
    2598, 
    2599, 
    2600, 
    2601, 
    2604, 
    2605, 
    2608, 
    2609, 
    2610, 
    2611, 
    2612, 
    2613, 
    2614, 
    2615, 
    2616, 
    2617, 
    2618, 
    2619, 
    2620, 
    2623, 
    2624, 
    2627, 
    2628, 
    2629, 
    2630, 
    2631, 
    2632, 
    2633, 
    2634, 
    2635, 
    2636, 
    2637, 
    2638, 
    2639, 
    2642, 
    2643, 
    2646, 
    2647, 
    2648, 
    2649, 
    2650, 
    2651, 
    2652, 
    2653, 
    2654, 
    2655, 
    2656, 
    2657, 
    2658, 
    2661, 
    2662, 
    2665, 
    2666, 
    2667, 
    2668, 
    2669, 
    2670, 
    2671, 
    2672, 
    2673, 
    2674, 
    2675, 
    2676, 
    2677, 
    2680, 
    2681, 
    2684, 
    2685, 
    2686, 
    2687, 
    2688, 
    2689, 
    2690, 
    2691, 
    2692, 
    2693, 
    2694, 
    2695, 
    2696, 
    2699, 
    2700, 
    2703, 
    2704, 
    2705, 
    2706, 
    2707, 
    2708, 
    2709, 
    2710, 
    2711, 
    2712, 
    2713, 
    2714, 
    2715, 
    2718, 
    2719, 
    2722, 
    2723, 
    2724, 
    2725, 
    2726, 
    2727, 
    2728, 
    2729, 
    2730, 
    2731, 
    2732, 
    2733, 
    2734, 
    2737, 
    2738, 
    2741, 
    2742, 
    2743, 
    2744, 
    2745, 
    2746, 
    2747, 
    2748, 
    2749, 
    2750, 
    2751, 
    2752, 
    2753, 
    2756, 
    2757, 
    2760, 
    2761, 
    2762, 
    2763, 
    2764, 
    2765, 
    2766, 
    2767, 
    2768, 
    2769, 
    2770, 
    2771, 
    2772, 
    2775, 
    2776, 
    2779, 
    2780, 
    2781, 
    2782, 
    2783, 
    2784, 
    2785, 
    2786, 
    2787, 
    2788, 
    2789, 
    2790, 
    2791, 
    2794, 
    2795, 
    2798, 
    2799, 
    2800, 
    2801, 
    2802, 
    2803, 
    2804, 
    2805, 
    2806, 
    2807, 
    2808, 
    2809, 
    2810, 
    2813, 
    2814, 
    2817, 
    2818, 
    2819, 
    2820, 
    2821, 
    2822, 
    2823, 
    2824, 
    2825, 
    2826, 
    2827, 
    2828, 
    2829, 
    2832, 
    2833, 
    2836, 
    2837, 
    2838, 
    2839, 
    2840, 
    2841, 
    2842, 
    2843, 
    2844, 
    2845, 
    2846, 
    2847, 
    2848, 
    2851, 
    2852, 
    2855, 
    2856, 
    2857, 
    2858, 
    2859, 
    2860, 
    2861, 
    2862, 
    2863, 
    2864, 
    2865, 
    2866, 
    2867, 
    2870, 
    2871, 
    2874, 
    2875, 
    2876, 
    2877, 
    2878, 
    2879, 
    2880, 
    2881, 
    2882, 
    2883, 
    2884, 
    2885, 
    2886, 
    2889, 
    2890, 
    2893, 
    2894, 
    2895, 
    2896, 
    2897, 
    2898, 
    2899, 
    2900, 
    2901, 
    2902, 
    2903, 
    2904, 
    2905, 
    2908, 
    2909, 
    2912, 
    2913, 
    2914, 
    2915, 
    2916, 
    2917, 
    2918, 
    2919, 
    2920, 
    2921, 
    2922, 
    2923, 
    2924, 
    2927, 
    2928, 
    2931, 
    2932, 
    2933, 
    2934, 
    2935, 
    2936, 
    2937, 
    2938, 
    2939, 
    2940, 
    2941, 
    2942, 
    2943, 
    2946, 
    2947, 
    2950, 
    2951, 
    2952, 
    2953, 
    2954, 
    2955, 
    2956, 
    2957, 
    2958, 
    2959, 
    2960, 
    2961, 
    2962, 
    2965, 
    2966, 
    2969, 
    2970, 
    2971, 
    2972, 
    2973, 
    2974, 
    2975, 
    2976, 
    2977, 
    2978, 
    2979, 
    2980, 
    2981, 
    2984, 
    2985, 
    2988, 
    2989, 
    2990, 
    2991, 
    2992, 
    2993, 
    2994, 
    2995, 
    2996, 
    2997, 
    2998, 
    2999, 
    3000, 
    3003, 
    3004, 
    3007, 
    3008, 
    3009, 
    3010, 
    3011, 
    3012, 
    3013, 
    3014, 
    3015, 
    3016, 
    3017, 
    3018, 
    3019, 
    3022, 
    3023, 
    3026, 
    3027, 
    3028, 
    3029, 
    3030, 
    3031, 
    3032, 
    3033, 
    3034, 
    3035, 
    3036, 
    3037, 
    3038, 
    3041, 
    3042, 
    3045, 
    3046, 
    3047, 
    3048, 
    3049, 
    3050, 
    3051, 
    3052, 
    3053, 
    3054, 
    3055, 
    3056, 
    3057, 
    3060, 
    3061, 
    3064, 
    3065, 
    3066, 
    3067, 
    3068, 
    3069, 
    3070, 
    3071, 
    3072, 
    3073, 
    3074, 
    3075, 
    3076, 
    3079, 
    3080, 
    3083, 
    3084, 
    3085, 
    3086, 
    3087, 
    3088, 
    3089, 
    3090, 
    3091, 
    3092, 
    3093, 
    3094, 
    3095, 
    3098, 
    3099, 
    3102, 
    3103, 
    3104, 
    3105, 
    3106, 
    3107, 
    3108, 
    3109, 
    3110, 
    3111, 
    3112, 
    3113, 
    3114, 
    3117, 
    3118, 
    3121, 
    3122, 
    3123, 
    3124, 
    3125, 
    3126, 
    3127, 
    3128, 
    3129, 
    3130, 
    3131, 
    3132, 
    3133, 
    3136, 
    3137, 
    3140, 
    3141, 
    3142, 
    3143, 
    3144, 
    3145, 
    3146, 
    3147, 
    3148, 
    3149, 
    3150, 
    3151, 
    3152, 
    3155, 
    3156, 
    3159, 
    3160, 
    3161, 
    3162, 
    3163, 
    3164, 
    3165, 
    3166, 
    3167, 
    3168, 
    3169, 
    3170, 
    3171, 
    3174, 
    3175, 
    3178, 
    3179, 
    3180, 
    3181, 
    3182, 
    3183, 
    3184, 
    3185, 
    3186, 
    3187, 
    3188, 
    3189, 
    3190, 
    3193, 
    3194, 
    3197, 
    3198, 
    3199, 
    3200, 
    3201, 
    3202, 
    3203, 
    3204, 
    3205, 
    3206, 
    3207, 
    3208, 
    3209, 
    3212, 
    3213, 
    3216, 
    3217, 
    3218, 
    3219, 
    3220, 
    3221, 
    3222, 
    3223, 
    3224, 
    3225, 
    3226, 
    3227, 
    3228, 
    3231, 
    3232, 
    3235, 
    3236, 
    3237, 
    3238, 
    3239, 
    3240, 
    3241, 
    3242, 
    3243, 
    3244, 
    3245, 
    3246, 
    3247, 
    3250, 
    3251, 
    3254, 
    3255, 
    3256, 
    3257, 
    3258, 
    3259, 
    3260, 
    3261, 
    3262, 
    3263, 
    3264, 
    3265, 
    3266, 
    3269, 
    3270, 
    3273, 
    3274, 
    3275, 
    3276, 
    3277, 
    3278, 
    3279, 
    3280, 
    3281, 
    3282, 
    3283, 
    3284, 
    3285, 
    3288, 
    3289, 
    3292, 
    3293, 
    3294, 
    3295, 
    3296, 
    3297, 
    3298, 
    3299, 
    3300, 
    3301, 
    3302, 
    3303, 
    3304, 
    3307, 
    3308, 
    3311, 
    3312, 
    3313, 
    3314, 
    3315, 
    3316, 
    3317, 
    3318, 
    3319, 
    3320, 
    3321, 
    3322, 
    3323, 
    3326, 
    3327, 
    3330, 
    3331, 
    3332, 
    3333, 
    3334, 
    3335, 
    3336, 
    3337, 
    3338, 
    3339, 
    3340, 
    3341, 
    3342, 
    3345, 
    3346, 
    3349, 
    3350, 
    3351, 
    3352, 
    3353, 
    3354, 
    3355, 
    3356, 
    3357, 
    3358, 
    3359, 
    3360, 
    3361, 
    3364, 
    3365, 
    3368, 
    3369, 
    3370, 
    3371, 
    3372, 
    3373, 
    3374, 
    3375, 
    3376, 
    3377, 
    3378, 
    3379, 
    3380, 
    3383, 
    3384, 
    3387, 
    3388, 
    3389, 
    3390, 
    3391, 
    3392, 
    3393, 
    3394, 
    3395, 
    3396, 
    3397, 
    3398, 
    3399, 
    3402, 
    3403, 
    3406, 
    3407, 
    3408, 
    3409, 
    3410, 
    3411, 
    3412, 
    3413, 
    3414, 
    3415, 
    3416, 
    3417, 
    3418, 
    3421, 
    3422, 
    3425, 
    3426, 
    3427, 
    3428, 
    3429, 
    3430, 
    3431, 
    3432, 
    3433, 
    3434, 
    3435, 
    3436, 
    3437, 
    3440, 
    3441, 
    3444, 
    3445, 
    3446, 
    3447, 
    3448, 
    3449, 
    3450, 
    3451, 
    3452, 
    3453, 
    3454, 
    3455, 
    3456, 
    3459, 
    3460, 
    3463, 
    3464, 
    3465, 
    3466, 
    3467, 
    3468, 
    3469, 
    3470, 
    3471, 
    3472, 
    3473, 
    3474, 
    3475, 
    3478, 
    3479, 
    3482, 
    3483, 
    3484, 
    3485, 
    3486, 
    3487, 
    3488, 
    3489, 
    3490, 
    3491, 
    3492, 
    3493, 
    3494, 
    3497, 
    3498, 
    3501, 
    3502, 
    3503, 
    3504, 
    3505, 
    3506, 
    3507, 
    3508, 
    3509, 
    3510, 
    3511, 
    3512, 
    3513, 
    3516, 
    3517, 
    3520, 
    3521, 
    3522, 
    3523, 
    3524, 
    3525, 
    3526, 
    3527, 
    3528, 
    3529, 
    3530, 
    3531, 
    3532, 
    3535, 
    3536, 
    3539, 
    3540, 
    3541, 
    3542, 
    3543, 
    3544, 
    3545, 
    3546, 
    3547, 
    3548, 
    3549, 
    3550, 
    3551, 
    3554, 
    3555, 
    3558, 
    3559, 
    3560, 
    3561, 
    3562, 
    3563, 
    3564, 
    3565, 
    3566, 
    3567, 
    3568, 
    3569, 
    3570, 
    3573, 
    3574, 
    3577, 
    3578, 
    3579, 
    3580, 
    3581, 
    3582, 
    3583, 
    3584, 
    3585, 
    3586, 
    3587, 
    3588, 
    3589, 
    3592, 
    3593, 
    3596, 
    3597, 
    3598, 
    3599, 
    3600, 
    3601, 
    3602, 
    3603, 
    3604, 
    3605, 
    3606, 
    3607, 
    3608, 
    3611, 
    3612, 
    3615, 
    3616, 
    3617, 
    3618, 
    3619, 
    3620, 
    3621, 
    3622, 
    3623, 
    3624, 
    3625, 
    3626, 
    3627, 
    3630, 
    3631, 
    3634, 
    3635, 
    3636, 
    3637, 
    3638, 
    3639, 
    3640, 
    3641, 
    3642, 
    3643, 
    3644, 
    3645, 
    3646, 
    3649, 
    3650, 
    3653, 
    3654, 
    3655, 
    3656, 
    3657, 
    3658, 
    3659, 
    3660, 
    3661, 
    3662, 
    3663, 
    3664, 
    3665, 
    3668, 
    3669, 
    3672, 
    3673, 
    3674, 
    3675, 
    3676, 
    3677, 
    3678, 
    3679, 
    3680, 
    3681, 
    3682, 
    3683, 
    3684, 
    3687, 
    3688, 
    3691, 
    3692, 
    3693, 
    3694, 
    3695, 
    3696, 
    3697, 
    3698, 
    3699, 
    3700, 
    3701, 
    3702, 
    3703, 
    3706, 
    3707, 
    3710, 
    3711, 
    3712, 
    3713, 
    3714, 
    3715, 
    3716, 
    3717, 
    3718, 
    3719, 
    3720, 
    3721, 
    3722, 
    3725, 
    3726, 
    3729, 
    3730, 
    3731, 
    3732, 
    3733, 
    3734, 
    3735, 
    3736, 
    3737, 
    3738, 
    3739, 
    3740, 
    3741, 
    3744, 
    3745, 
    3748, 
    3749, 
    3750, 
    3751, 
    3752, 
    3753, 
    3754, 
    3755, 
    3756, 
    3757, 
    3758, 
    3759, 
    3760, 
    3763, 
    3764, 
    3767, 
    3768, 
    3769, 
    3770, 
    3771, 
    3772, 
    3773, 
    3774, 
    3775, 
    3776, 
    3777, 
    3778, 
    3779, 
    3782, 
    3783, 
    3786, 
    3787, 
    3788, 
    3789, 
    3790, 
    3791, 
    3792, 
    3793, 
    3794, 
    3795, 
    3796, 
    3797, 
    3798, 
    3801, 
    3802, 
    3805, 
    3806, 
    3807, 
    3808, 
    3809, 
    3810, 
    3811, 
    3812, 
    3813, 
    3814, 
    3815, 
    3816, 
    3817, 
    3820, 
    3821, 
    3824, 
    3825, 
    3826, 
    3827, 
    3828, 
    3829, 
    3830, 
    3831, 
    3832, 
    3833, 
    3834, 
    3835, 
    3836, 
    3839, 
    3840, 
    3843, 
    3844, 
    3845, 
    3846, 
    3847, 
    3848, 
    3849, 
    3850, 
    3851, 
    3852, 
    3853, 
    3854, 
    3855, 
    3858, 
    3859, 
    3862, 
    3863, 
    3864, 
    3865, 
    3866, 
    3867, 
    3868, 
    3869, 
    3870, 
    3871, 
    3872, 
    3873, 
    3874, 
    3877, 
    3878, 
    3881, 
    3882, 
    3883, 
    3884, 
    3885, 
    3886, 
    3887, 
    3888, 
    3889, 
    3890, 
    3891, 
    3892, 
    3893, 
    3896, 
    3897, 
    3900, 
    3901, 
    3902, 
    3903, 
    3904, 
    3905, 
    3906, 
    3907, 
    3908, 
    3909, 
    3910, 
    3911, 
    3912, 
    3915, 
    3916, 
    3919, 
    3920, 
    3921, 
    3922, 
    3923, 
    3924, 
    3925, 
    3926, 
    3927, 
    3928, 
    3929, 
    3930, 
    3931, 
    3934, 
    3935, 
    3938, 
    3939, 
    3940, 
    3941, 
    3942, 
    3943, 
    3944, 
    3945, 
    3946, 
    3947, 
    3948, 
    3949, 
    3950, 
    3953, 
    3954, 
    3957, 
    3958, 
    3959, 
    3960, 
    3961, 
    3962, 
    3963, 
    3964, 
    3965, 
    3966, 
    3967, 
    3968, 
    3969, 
    3972, 
    3973, 
    3976, 
    3977, 
    3978, 
    3979, 
    3980, 
    3981, 
    3982, 
    3983, 
    3984, 
    3985, 
    3986, 
    3987, 
    3988, 
    3991, 
    3992, 
    3995, 
    3996, 
    3997, 
    3998, 
    3999, 
    4000, 
    4001, 
    4002, 
    4003, 
    4004, 
    4005, 
    4006, 
    4007, 
    4010, 
    4011, 
    4014, 
    4015, 
    4016, 
    4017, 
    4018, 
    4019, 
    4020, 
    4021, 
    4022, 
    4023, 
    4024, 
    4025, 
    4026, 
    4029, 
    4030, 
    4033, 
    4034, 
    4035, 
    4036, 
    4037, 
    4038, 
    4039, 
    4040, 
    4041, 
    4042, 
    4043, 
    4044, 
    4045, 
    4048, 
    4049, 
    4052, 
    4053, 
    4054, 
    4055, 
    4056, 
    4057, 
    4058, 
    4059, 
    4060, 
    4061, 
    4062, 
    4063, 
    4064, 
    4067, 
    4068, 
    4071, 
    4072, 
    4073, 
    4074, 
    4075, 
    4076, 
    4077, 
    4078, 
    4079, 
    4080, 
    4081, 
    4082, 
    4083, 
    4086, 
    4087, 
    4090, 
    4091, 
    4092, 
    4093, 
    4094, 
    4095, 
    4096, 
    4097, 
    4098, 
    4099, 
    4100, 
    4101, 
    4102, 
    4105, 
    4106, 
    4109, 
    4110, 
    4111, 
    4112, 
    4113, 
    4114, 
    4115, 
    4116, 
    4117, 
    4118, 
    4119, 
    4120, 
    4121, 
    4124, 
    4125, 
    4128, 
    4129, 
    4130, 
    4131, 
    4132, 
    4133, 
    4134, 
    4135, 
    4136, 
    4137, 
    4138, 
    4139, 
    4140, 
    4143, 
    4144, 
    4147, 
    4148, 
    4149, 
    4150, 
    4151, 
    4152, 
    4153, 
    4154, 
    4155, 
    4156, 
    4157, 
    4158, 
    4159, 
    4162, 
    4163, 
    4166, 
    4167, 
    4168, 
    4169, 
    4170, 
    4171, 
    4172, 
    4173, 
    4174, 
    4175, 
    4176, 
    4177, 
    4178, 
    4181, 
    4182, 
    4185, 
    4186, 
    4187, 
    4188, 
    4189, 
    4190, 
    4191, 
    4192, 
    4193, 
    4194, 
    4195, 
    4196, 
    4197, 
    4200, 
    4201, 
    4204, 
    4205, 
    4206, 
    4207, 
    4208, 
    4209, 
    4210, 
    4211, 
    4212, 
    4213, 
    4214, 
    4215, 
    4216, 
    4219, 
    4220, 
    4223, 
    4224, 
    4225, 
    4226, 
    4227, 
    4228, 
    4229, 
    4230, 
    4231, 
    4232, 
    4233, 
    4234, 
    4235, 
    4238, 
    4239, 
    4242, 
    4243, 
    4244, 
    4245, 
    4246, 
    4247, 
    4248, 
    4249, 
    4250, 
    4251, 
    4252, 
    4253, 
    4254, 
    4257, 
    4258, 
    4261, 
    4262, 
    4263, 
    4264, 
    4265, 
    4266, 
    4267, 
    4268, 
    4269, 
    4270, 
    4271, 
    4272, 
    4273, 
    4276, 
    4277, 
    4280, 
    4281, 
    4282, 
    4283, 
    4284, 
    4285, 
    4286, 
    4287, 
    4288, 
    4289, 
    4290, 
    4291, 
    4292, 
    4295, 
    4296, 
    4299, 
    4300, 
    4301, 
    4302, 
    4303, 
    4304, 
    4305, 
    4306, 
    4307, 
    4308, 
    4309, 
    4310, 
    4311, 
    4314, 
    4315, 
    4318, 
    4319, 
    4320, 
    4321, 
    4322, 
    4323, 
    4324, 
    4325, 
    4326, 
    4327, 
    4328, 
    4329, 
    4330, 
    4333, 
    4334, 
    4337, 
    4338, 
    4339, 
    4340, 
    4341, 
    4342, 
    4343, 
    4344, 
    4345, 
    4346, 
    4347, 
    4348, 
    4349, 
    4352, 
    4353, 
    4356, 
    4357, 
    4358, 
    4359, 
    4360, 
    4361, 
    4362, 
    4363, 
    4364, 
    4365, 
    4366, 
    4367, 
    4368, 
    4371, 
    4372, 
    4375, 
    4376, 
    4377, 
    4378, 
    4379, 
    4380, 
    4381, 
    4382, 
    4383, 
    4384, 
    4385, 
    4386, 
    4387, 
    4390, 
    4391, 
    4394, 
    4395, 
    4396, 
    4397, 
    4398, 
    4399, 
    4400, 
    4401, 
    4402, 
    4403, 
    4404, 
    4405, 
    4406, 
    4409, 
    4410, 
    4413, 
    4414, 
    4415, 
    4416, 
    4417, 
    4418, 
    4419, 
    4420, 
    4421, 
    4422, 
    4423, 
    4424, 
    4425, 
    4428, 
    4429, 
    4432, 
    4433, 
    4434, 
    4435, 
    4436, 
    4437, 
    4438, 
    4439, 
    4440, 
    4441, 
    4442, 
    4443, 
    4444, 
    4447, 
    4448, 
    4451, 
    4452, 
    4453, 
    4454, 
    4455, 
    4456, 
    4457, 
    4458, 
    4459, 
    4460, 
    4461, 
    4462, 
    4463, 
    4466, 
    4467, 
    4470, 
    4471, 
    4472, 
    4473, 
    4474, 
    4475, 
    4476, 
    4477, 
    4478, 
    4479, 
    4480, 
    4481, 
    4482, 
    4485, 
    4486, 
    4489, 
    4490, 
    4491, 
    4492, 
    4493, 
    4494, 
    4495, 
    4496, 
    4497, 
    4498, 
    4499, 
    4500, 
    4501, 
    4504, 
    4505, 
    4508, 
    4509, 
    4510, 
    4511, 
    4512, 
    4513, 
    4514, 
    4515, 
    4516, 
    4517, 
    4518, 
    4519, 
    4520, 
    4523, 
    4524, 
    4527, 
    4528, 
    4529, 
    4530, 
    4531, 
    4532, 
    4533, 
    4534, 
    4535, 
    4536, 
    4537, 
    4538, 
    4539, 
    4542, 
    4543, 
    4546, 
    4547, 
    4548, 
    4549, 
    4550, 
    4551, 
    4552, 
    4553, 
    4554, 
    4555, 
    4556, 
    4557, 
    4558, 
    4561, 
    4562, 
    4565, 
    4566, 
    4567, 
    4568, 
    4569, 
    4570, 
    4571, 
    4572, 
    4573, 
    4574, 
    4575, 
    4576, 
    4577, 
    4580, 
    4581, 
    4584, 
    4585, 
    4586, 
    4587, 
    4588, 
    4589, 
    4590, 
    4591, 
    4592, 
    4593, 
    4594, 
    4595, 
    4596, 
    4599, 
    4600, 
    4603, 
    4604, 
    4605, 
    4606, 
    4607, 
    4608, 
    4609, 
    4610, 
    4611, 
    4612, 
    4613, 
    4614, 
    4615, 
    4618, 
    4619, 
    4622, 
    4623, 
    4624, 
    4625, 
    4626, 
    4627, 
    4628, 
    4629, 
    4630, 
    4631, 
    4632, 
    4633, 
    4634, 
    4637, 
    4638, 
    4641, 
    4642, 
    4643, 
    4644, 
    4645, 
    4646, 
    4647, 
    4648, 
    4649, 
    4650, 
    4651, 
    4652, 
    4653, 
    4656, 
    4657, 
    4660, 
    4661, 
    4662, 
    4663, 
    4664, 
    4665, 
    4666, 
    4667, 
    4668, 
    4669, 
    4670, 
    4671, 
    4672, 
    4675, 
    4676, 
    4679, 
    4680, 
    4681, 
    4682, 
    4683, 
    4684, 
    4685, 
    4686, 
    4687, 
    4688, 
    4689, 
    4690, 
    4691, 
    4694, 
    4695, 
    4698, 
    4699, 
    4700, 
    4701, 
    4702, 
    4703, 
    4704, 
    4705, 
    4706, 
    4707, 
    4708, 
    4709, 
    4710, 
    4713, 
    4714, 
    4717, 
    4718, 
    4719, 
    4720, 
    4721, 
    4722, 
    4723, 
    4724, 
    4725, 
    4726, 
    4727, 
    4728, 
    4729, 
    4732, 
    4733, 
    4736, 
    4737, 
    4738, 
    4739, 
    4740, 
    4741, 
    4742, 
    4743, 
    4744, 
    4745, 
    4746, 
    4747, 
    4748, 
    4751, 
    4752, 
    4755, 
    4756, 
    4757, 
    4758, 
    4759, 
    4760, 
    4761, 
    4762, 
    4763, 
    4764, 
    4765, 
    4766, 
    4767, 
    4770, 
    4771, 
    4774, 
    4775, 
    4776, 
    4777, 
    4778, 
    4779, 
    4780, 
    4781, 
    4782, 
    4783, 
    4784, 
    4785, 
    4786, 
    4789, 
    4790, 
    4793, 
    4794, 
    4795, 
    4796, 
    4797, 
    4798, 
    4799, 
    4800, 
    4801, 
    4802, 
    4803, 
    4804, 
    4805, 
    4808, 
    4809, 
    4812, 
    4813, 
    4814, 
    4815, 
    4816, 
    4817, 
    4818, 
    4819, 
    4820, 
    4821, 
    4822, 
    4823, 
    4824, 
    4827, 
    4828, 
    4831, 
    4832, 
    4833, 
    4834, 
    4835, 
    4836, 
    4837, 
    4838, 
    4839, 
    4840, 
    4841, 
    4842, 
    4843, 
    4846, 
    4847, 
    4850, 
    4851, 
    4852, 
    4853, 
    4854, 
    4855, 
    4856, 
    4857, 
    4858, 
    4859, 
    4860, 
    4861, 
    4862, 
    4865, 
    4866, 
    4869, 
    4870, 
    4871, 
    4872, 
    4873, 
    4874, 
    4875, 
    4876, 
    4877, 
    4878, 
    4879, 
    4880, 
    4881, 
    4884, 
    4885, 
    4888, 
    4889, 
    4890, 
    4891, 
    4892, 
    4893, 
    4894, 
    4895, 
    4896, 
    4897, 
    4898, 
    4899, 
    4900, 
    4903, 
    4904, 
    4907, 
    4908, 
    4909, 
    4910, 
    4911, 
    4912, 
    4913, 
    4914, 
    4915, 
    4916, 
    4917, 
    4918, 
    4919, 
    4922, 
    4923, 
    4926, 
    4927, 
    4928, 
    4929, 
    4930, 
    4931, 
    4932, 
    4933, 
    4934, 
    4935, 
    4936, 
    4937, 
    4938, 
    4941, 
    4942, 
    4945, 
    4946, 
    4947, 
    4948, 
    4949, 
    4950, 
    4951, 
    4952, 
    4953, 
    4954, 
    4955, 
    4956, 
    4957, 
    4960, 
    4961, 
    4964, 
    4965, 
    4966, 
    4967, 
    4968, 
    4969, 
    4970, 
    4971, 
    4972, 
    4973, 
    4974, 
    4975, 
    4976, 
    4979, 
    4980, 
    4983, 
    4984, 
    4985, 
    4986, 
    4987, 
    4988, 
    4989, 
    4990, 
    4991, 
    4992, 
    4993, 
    4994, 
    4995, 
    4998, 
    4999, 
    5002, 
    5003, 
    5004, 
    5005, 
    5006, 
    5007, 
    5008, 
    5009, 
    5010, 
    5011, 
    5012, 
    5013, 
    5014, 
    5017, 
    5018, 
    5021, 
    5022, 
    5023, 
    5024, 
    5025, 
    5026, 
    5027, 
    5028, 
    5029, 
    5030, 
    5031, 
    5032, 
    5033, 
    5036, 
    5037, 
    5040, 
    5041, 
    5042, 
    5043, 
    5044, 
    5045, 
    5046, 
    5047, 
    5048, 
    5049, 
    5050, 
    5051, 
    5052, 
    5055, 
    5056, 
    5059, 
    5060, 
    5061, 
    5062, 
    5063, 
    5064, 
    5065, 
    5066, 
    5067, 
    5068, 
    5069, 
    5070, 
    5071, 
    5074, 
    5075, 
    5078, 
    5079, 
    5080, 
    5081, 
    5082, 
    5083, 
    5084, 
    5085, 
    5086, 
    5087, 
    5088, 
    5089, 
    5090, 
    5093, 
    5094, 
    5097, 
    5098, 
    5099, 
    5100, 
    5101, 
    5102, 
    5103, 
    5104, 
    5105, 
    5106, 
    5107, 
    5108, 
    5109, 
    5112, 
    5113, 
    5116, 
    5117, 
    5118, 
    5119, 
    5120, 
    5121, 
    5122, 
    5123, 
    5124, 
    5125, 
    5126, 
    5127, 
    5128, 
    5131, 
    5132, 
    5135, 
    5136, 
    5137, 
    5138, 
    5139, 
    5140, 
    5141, 
    5142, 
    5143, 
    5144, 
    5145, 
    5146, 
    5147, 
    5150, 
    5151, 
    5154, 
    5155, 
    5156, 
    5157, 
    5158, 
    5159, 
    5160, 
    5161, 
    5162, 
    5163, 
    5164, 
    5165, 
    5166, 
    5169, 
    5170, 
    5173, 
    5174, 
    5175, 
    5176, 
    5177, 
    5178, 
    5179, 
    5180, 
    5181, 
    5182, 
    5183, 
    5184, 
    5185, 
    5188, 
    5189, 
    5192, 
    5193, 
    5194, 
    5195, 
    5196, 
    5197, 
    5198, 
    5199, 
    5200, 
    5201, 
    5202, 
    5203, 
    5204, 
    5207, 
    5208, 
    5211, 
    5212, 
    5213, 
    5214, 
    5215, 
    5216, 
    5217, 
    5218, 
    5219, 
    5220, 
    5221, 
    5222, 
    5223, 
    5226, 
    5227, 
    5230, 
    5231, 
    5232, 
    5233, 
    5234, 
    5235, 
    5236, 
    5237, 
    5238, 
    5239, 
    5240, 
    5241, 
    5242, 
    5245, 
    5246, 
    5249, 
    5250, 
    5251, 
    5252, 
    5253, 
    5254, 
    5255, 
    5256, 
    5257, 
    5258, 
    5259, 
    5260, 
    5261, 
    5264, 
    5265, 
    5268, 
    5269, 
    5270, 
    5271, 
    5272, 
    5273, 
    5274, 
    5275, 
    5276, 
    5277, 
    5278, 
    5279, 
    5280, 
    5283, 
    5284, 
    5287, 
    5288, 
    5289, 
    5290, 
    5291, 
    5292, 
    5293, 
    5294, 
    5295, 
    5296, 
    5297, 
    5298, 
    5299, 
    5302, 
    5303, 
    5306, 
    5307, 
    5308, 
    5309, 
    5310, 
    5311, 
    5312, 
    5313, 
    5314, 
    5315, 
    5316, 
    5317, 
    5318, 
    5321, 
    5322, 
    5325, 
    5326, 
    5327, 
    5328, 
    5329, 
    5330, 
    5331, 
    5332, 
    5333, 
    5334, 
    5335, 
    5336, 
    5337, 
    5340, 
    5341, 
    5344, 
    5345, 
    5346, 
    5347, 
    5348, 
    5349, 
    5350, 
    5351, 
    5352, 
    5353, 
    5354, 
    5355, 
    5356, 
    5359, 
    5360, 
    5363, 
    5364, 
    5365, 
    5366, 
    5367, 
    5368, 
    5369, 
    5370, 
    5371, 
    5372, 
    5373, 
    5374, 
    5375, 
    5378, 
    5379, 
    5382, 
    5383, 
    5384, 
    5385, 
    5386, 
    5387, 
    5388, 
    5389, 
    5390, 
    5391, 
    5392, 
    5393, 
    5394, 
    5397, 
    5398, 
    5401, 
    5402, 
    5403, 
    5404, 
    5405, 
    5406, 
    5407, 
    5408, 
    5409, 
    5410, 
    5411, 
    5412, 
    5413, 
    5416, 
    5417, 
    5420, 
    5421, 
    5422, 
    5423, 
    5424, 
    5425, 
    5426, 
    5427, 
    5428, 
    5429, 
    5430, 
    5431, 
    5432, 
    5435, 
    5436, 
    5439, 
    5440, 
    5441, 
    5442, 
    5443, 
    5444, 
    5445, 
    5446, 
    5447, 
    5448, 
    5449, 
    5450, 
    5451, 
    5454, 
    5455, 
    5458, 
    5459, 
    5460, 
    5461, 
    5462, 
    5463, 
    5464, 
    5465, 
    5466, 
    5467, 
    5468, 
    5469, 
    5470, 
    5473, 
    5474, 
    5477, 
    5478, 
    5479, 
    5480, 
    5481, 
    5482, 
    5483, 
    5484, 
    5485, 
    5486, 
    5487, 
    5488, 
    5489, 
    5492, 
    5493, 
    5496, 
    5497, 
    5498, 
    5499, 
    5500, 
    5501, 
    5502, 
    5503, 
    5504, 
    5505, 
    5506, 
    5507, 
    5508, 
    5511, 
    5512, 
    5515, 
    5516, 
    5517, 
    5518, 
    5519, 
    5520, 
    5521, 
    5522, 
    5523, 
    5524, 
    5525, 
    5526, 
    5527, 
    5530, 
    5531, 
    5534, 
    5535, 
    5536, 
    5537, 
    5538, 
    5539, 
    5540, 
    5541, 
    5542, 
    5543, 
    5544, 
    5545, 
    5546, 
    5549, 
    5550, 
    5553, 
    5554, 
    5555, 
    5556, 
    5557, 
    5558, 
    5559, 
    5560, 
    5561, 
    5562, 
    5563, 
    5564, 
    5565, 
    5568, 
    5569, 
    5572, 
    5573, 
    5574, 
    5575, 
    5576, 
    5577, 
    5578, 
    5579, 
    5580, 
    5581, 
    5582, 
    5583, 
    5584, 
    5587, 
    5588, 
    5591, 
    5592, 
    5593, 
    5594, 
    5595, 
    5596, 
    5597, 
    5598, 
    5599, 
    5600, 
    5601, 
    5602, 
    5603, 
    5606, 
    5607, 
    5610, 
    5611, 
    5612, 
    5613, 
    5614, 
    5615, 
    5616, 
    5617, 
    5618, 
    5619, 
    5620, 
    5621, 
    5622, 
    5625, 
    5626, 
    5629, 
    5630, 
    5631, 
    5632, 
    5633, 
    5634, 
    5635, 
    5636, 
    5637, 
    5638, 
    5639, 
    5640, 
    5641, 
    5644, 
    5645, 
    5648, 
    5649, 
    5650, 
    5651, 
    5652, 
    5653, 
    5654, 
    5655, 
    5656, 
    5657, 
    5658, 
    5659, 
    5660, 
    5663, 
    5664, 
    5667, 
    5668, 
    5669, 
    5670, 
    5671, 
    5672, 
    5673, 
    5674, 
    5675, 
    5676, 
    5677, 
    5678, 
    5679, 
    5682, 
    5683, 
    5686, 
    5687, 
    5688, 
    5689, 
    5690, 
    5691, 
    5692, 
    5693, 
    5694, 
    5695, 
    5696, 
    5697, 
    5698, 
    5701, 
    5702, 
    5705, 
    5706, 
    5707, 
    5708, 
    5709, 
    5710, 
    5711, 
    5712, 
    5713, 
    5714, 
    5715, 
    5716, 
    5717, 
    5720, 
    5721, 
    5724, 
    5725, 
    5726, 
    5727, 
    5728, 
    5729, 
    5730, 
    5731, 
    5732, 
    5733, 
    5734, 
    5735, 
    5736, 
    5739, 
    5740, 
    5743, 
    5744, 
    5745, 
    5746, 
    5747, 
    5748, 
    5749, 
    5750, 
    5751, 
    5752, 
    5753, 
    5754, 
    5755, 
    5758, 
    5759, 
    5762, 
    5763, 
    5764, 
    5765, 
    5766, 
    5767, 
    5768, 
    5769, 
    5770, 
    5771, 
    5772, 
    5773, 
    5774, 
    5777, 
    5778, 
    5781, 
    5782, 
    5783, 
    5784, 
    5785, 
    5786, 
    5787, 
    5788, 
    5789, 
    5790, 
    5791, 
    5792, 
    5793, 
    5796, 
    5797, 
    5800, 
    5801, 
    5802, 
    5803, 
    5804, 
    5805, 
    5806, 
    5807, 
    5808, 
    5809, 
    5810, 
    5811, 
    5812, 
    5815, 
    5816, 
    5819, 
    5820, 
    5821, 
    5822, 
    5823, 
    5824, 
    5825, 
    5826, 
    5827, 
    5828, 
    5829, 
    5830, 
    5831, 
    5834, 
    5835, 
    5838, 
    5839, 
    5840, 
    5841, 
    5842, 
    5843, 
    5844, 
    5845, 
    5846, 
    5847, 
    5848, 
    5849, 
    5850, 
    5853, 
    5854, 
    5857, 
    5858, 
    5859, 
    5860, 
    5861, 
    5862, 
    5863, 
    5864, 
    5865, 
    5866, 
    5867, 
    5868, 
    5869, 
    5872, 
    5873, 
    5876, 
    5877, 
    5878, 
    5879, 
    5880, 
    5881, 
    5882, 
    5883, 
    5884, 
    5885, 
    5886, 
    5887, 
    5888, 
    5891, 
    5892, 
    5895, 
    5896, 
    5897, 
    5898, 
    5899, 
    5900, 
    5901, 
    5902, 
    5903, 
    5904, 
    5905, 
    5906, 
    5907, 
    5910, 
    5911, 
    5914, 
    5915, 
    5916, 
    5917, 
    5918, 
    5919, 
    5920, 
    5921, 
    5922, 
    5923, 
    5924, 
    5925, 
    5926, 
    5929, 
    5930, 
    5933, 
    5934, 
    5935, 
    5936, 
    5937, 
    5938, 
    5939, 
    5940, 
    5941, 
    5942, 
    5943, 
    5944, 
    5945, 
    5948, 
    5949, 
    5952, 
    5953, 
    5954, 
    5955, 
    5956, 
    5957, 
    5958, 
    5959, 
    5960, 
    5961, 
    5962, 
    5963, 
    5964, 
    5967, 
    5968, 
    5971, 
    5972, 
    5973, 
    5974, 
    5975, 
    5976, 
    5977, 
    5978, 
    5979, 
    5980, 
    5981, 
    5982, 
    5983, 
    5986, 
    5987, 
    5990, 
    5991, 
    5992, 
    5993, 
    5994, 
    5995, 
    5996, 
    5997, 
    5998, 
    5999, 
    6000, 
    6001, 
    6002, 
    6005, 
    6006, 
    6009, 
    6010, 
    6011, 
    6012, 
    6013, 
    6014, 
    6015, 
    6016, 
    6017, 
    6018, 
    6019, 
    6020, 
    6021, 
    6024, 
    6025, 
    6028, 
    6029, 
    6030, 
    6031, 
    6032, 
    6033, 
    6034, 
    6035, 
    6036, 
    6037, 
    6038, 
    6039, 
    6040, 
    6043, 
    6044, 
    6047, 
    6048, 
    6049, 
    6050, 
    6051, 
    6052, 
    6053, 
    6054, 
    6055, 
    6056, 
    6057, 
    6058, 
    6059, 
    6062, 
    6063, 
    6066, 
    6067, 
    6068, 
    6069, 
    6070, 
    6071, 
    6072, 
    6073, 
    6074, 
    6075, 
    6076, 
    6077, 
    6078, 
    6081, 
    6082, 
    6085, 
    6086, 
    6087, 
    6088, 
    6089, 
    6090, 
    6091, 
    6092, 
    6093, 
    6094, 
    6095, 
    6096, 
    6097, 
    6100, 
    6101, 
    6104, 
    6105, 
    6106, 
    6107, 
    6108, 
    6109, 
    6110, 
    6111, 
    6112, 
    6113, 
    6114, 
    6115, 
    6116, 
    6119, 
    6120, 
    6123, 
    6124, 
    6125, 
    6126, 
    6127, 
    6128, 
    6129, 
    6130, 
    6131, 
    6132, 
    6133, 
    6134, 
    6135, 
    6138, 
    6139, 
    6142, 
    6143, 
    6144, 
    6145, 
    6146, 
    6147, 
    6148, 
    6149, 
    6150, 
    6151, 
    6152, 
    6153, 
    6154, 
    6157, 
    6158, 
    6161, 
    6162, 
    6163, 
    6164, 
    6165, 
    6166, 
    6167, 
    6168, 
    6169, 
    6170, 
    6171, 
    6172, 
    6173, 
    6176, 
    6177, 
    6180, 
    6181, 
    6182, 
    6183, 
    6184, 
    6185, 
    6186, 
    6187, 
    6188, 
    6189, 
    6190, 
    6191, 
    6192, 
    6195, 
    6196, 
    6199, 
    6200, 
    6201, 
    6202, 
    6203, 
    6204, 
    6205, 
    6206, 
    6207, 
    6208, 
    6209, 
    6210, 
    6211, 
    6214, 
    6215, 
    6218, 
    6219, 
    6220, 
    6221, 
    6222, 
    6223, 
    6224, 
    6225, 
    6226, 
    6227, 
    6228, 
    6229, 
    6230, 
    6233, 
    6234, 
    6237, 
    6238, 
    6239, 
    6240, 
    6241, 
    6242, 
    6243, 
    6244, 
    6245, 
    6246, 
    6247, 
    6248, 
    6249, 
    6252, 
    6253, 
    6256, 
    6257, 
    6258, 
    6259, 
    6260, 
    6261, 
    6262, 
    6263, 
    6264, 
    6265, 
    6266, 
    6267, 
    6268, 
    6271, 
    6272, 
    6275, 
    6276, 
    6277, 
    6278, 
    6279, 
    6280, 
    6281, 
    6282, 
    6283, 
    6284, 
    6285, 
    6286, 
    6287, 
    6290, 
    6291, 
    6294, 
    6295, 
    6296, 
    6297, 
    6298, 
    6299, 
    6300, 
    6301, 
    6302, 
    6303, 
    6304, 
    6305, 
    6306, 
    6309, 
    6310, 
    6313, 
    6314, 
    6315, 
    6316, 
    6317, 
    6318, 
    6319, 
    6320, 
    6321, 
    6322, 
    6323, 
    6324, 
    6325, 
    6328, 
    6329, 
    6332, 
    6333, 
    6334, 
    6335, 
    6336, 
    6337, 
    6338, 
    6339, 
    6340, 
    6341, 
    6342, 
    6343, 
    6344, 
    6347, 
    6348, 
    6351, 
    6352, 
    6353, 
    6354, 
    6355, 
    6356, 
    6357, 
    6358, 
    6359, 
    6360, 
    6361, 
    6362, 
    6363, 
    6366, 
    6367, 
    6370, 
    6371, 
    6372, 
    6373, 
    6374, 
    6375, 
    6376, 
    6377, 
    6378, 
    6379, 
    6380, 
    6381, 
    6382, 
    6385, 
    6386, 
    6389, 
    6390, 
    6391, 
    6392, 
    6393, 
    6394, 
    6395, 
    6396, 
    6397, 
    6398, 
    6399, 
    6400, 
    6401, 
    6404, 
    6405, 
    6408, 
    6409, 
    6410, 
    6411, 
    6412, 
    6413, 
    6414, 
    6415, 
    6416, 
    6417, 
    6418, 
    6419, 
    6420, 
    6423, 
    6424, 
    6427, 
    6428, 
    6429, 
    6430, 
    6431, 
    6432, 
    6433, 
    6434, 
    6435, 
    6436, 
    6437, 
    6438, 
    6439, 
    6442, 
    6443, 
    6446, 
    6447, 
    6448, 
    6449, 
    6450, 
    6451, 
    6452, 
    6453, 
    6454, 
    6455, 
    6456, 
    6457, 
    6458, 
    6461, 
    6462, 
    6465, 
    6466, 
    6467, 
    6468, 
    6469, 
    6470, 
    6471, 
    6472, 
    6473, 
    6474, 
    6475, 
    6476, 
    6477, 
    6480, 
    6481, 
    6484, 
    6485, 
    6486, 
    6487, 
    6488, 
    6489, 
    6490, 
    6491, 
    6492, 
    6493, 
    6494, 
    6495, 
    6496, 
    6499, 
    6500, 
    6503, 
    6504, 
    6505, 
    6506, 
    6507, 
    6508, 
    6509, 
    6510, 
    6511, 
    6512, 
    6513, 
    6514, 
    6515, 
    6518, 
    6519, 
    6522, 
    6523, 
    6524, 
    6525, 
    6526, 
    6527, 
    6528, 
    6529, 
    6530, 
    6531, 
    6532, 
    6533, 
    6534, 
    6537, 
    6538, 
    6541, 
    6542, 
    6543, 
    6544, 
    6545, 
    6546, 
    6547, 
    6548, 
    6549, 
    6550, 
    6551, 
    6552, 
    6553, 
    6556, 
    6557, 
    6560, 
    6561, 
    6562, 
    6563, 
    6564, 
    6565, 
    6566, 
    6567, 
    6568, 
    6569, 
    6570, 
    6571, 
    6572, 
    6575, 
    6576, 
    6579, 
    6580, 
    6581, 
    6582, 
    6583, 
    6584, 
    6585, 
    6586, 
    6587, 
    6588, 
    6589, 
    6590, 
    6591, 
    6594, 
    6595, 
    6598, 
    6599, 
    6600, 
    6601, 
    6602, 
    6603, 
    6604, 
    6605, 
    6606, 
    6607, 
    6608, 
    6609, 
    6610, 
    6613, 
    6614, 
    6617, 
    6618, 
    6619, 
    6620, 
    6621, 
    6622, 
    6623, 
    6624, 
    6625, 
    6626, 
    6627, 
    6628, 
    6629, 
    6632, 
    6633, 
    6636, 
    6637, 
    6638, 
    6639, 
    6640, 
    6641, 
    6642, 
    6643, 
    6644, 
    6645, 
    6646, 
    6647, 
    6648, 
    6651, 
    6652, 
    6655, 
    6656, 
    6657, 
    6658, 
    6659, 
    6660, 
    6661, 
    6662, 
    6663, 
    6664, 
    6665, 
    6666, 
    6667, 
    6670, 
    6671, 
    6674, 
    6675, 
    6676, 
    6677, 
    6678, 
    6679, 
    6680, 
    6681, 
    6682, 
    6683, 
    6684, 
    6685, 
    6686, 
    6689, 
    6690, 
    6693, 
    6694, 
    6695, 
    6696, 
    6697, 
    6698, 
    6699, 
    6700, 
    6701, 
    6702, 
    6703, 
    6704, 
    6705, 
    6708, 
    6709, 
    6712, 
    6713, 
    6714, 
    6715, 
    6716, 
    6717, 
    6718, 
    6719, 
    6720, 
    6721, 
    6722, 
    6723, 
    6724, 
    6727, 
    6728, 
    6731, 
    6732, 
    6733, 
    6734, 
    6735, 
    6736, 
    6737, 
    6738, 
    6739, 
    6740, 
    6741, 
    6742, 
    6743, 
    6746, 
    6747, 
    6750, 
    6751, 
    6752, 
    6753, 
    6754, 
    6755, 
    6756, 
    6757, 
    6758, 
    6759, 
    6760, 
    6761, 
    6762, 
    6765, 
    6766, 
    6769, 
    6770, 
    6771, 
    6772, 
    6773, 
    6774, 
    6775, 
    6776, 
    6777, 
    6778, 
    6779, 
    6780, 
    6781, 
    6784, 
    6785, 
    6788, 
    6789, 
    6790, 
    6791, 
    6792, 
    6793, 
    6794, 
    6795, 
    6796, 
    6797, 
    6798, 
    6799, 
    6800, 
    6803, 
    6804, 
    6807, 
    6808, 
    6809, 
    6810, 
    6811, 
    6812, 
    6813, 
    6814, 
    6815, 
    6816, 
    6817, 
    6818, 
    6819, 
    6822, 
    6823, 
    6826, 
    6827, 
    6828, 
    6829, 
    6830, 
    6831, 
    6832, 
    6833, 
    6834, 
    6835, 
    6836, 
    6837, 
    6838, 
    6841, 
    6842, 
    6845, 
    6846, 
    6847, 
    6848, 
    6849, 
    6850, 
    6851, 
    6852, 
    6853, 
    6854, 
    6855, 
    6856, 
    6857, 
    6860, 
    6861, 
    6864, 
    6865, 
    6866, 
    6867, 
    6868, 
    6869, 
    6870, 
    6871, 
    6872, 
    6873, 
    6874, 
    6875, 
    6876, 
    6879, 
    6880, 
    6883, 
    6884, 
    6885, 
    6886, 
    6887, 
    6888, 
    6889, 
    6890, 
    6891, 
    6892, 
    6893, 
    6894, 
    6895, 
    6898, 
    6899, 
    6902, 
    6903, 
    6904, 
    6905, 
    6906, 
    6907, 
    6908, 
    6909, 
    6910, 
    6911, 
    6912, 
    6913, 
    6914, 
    6917, 
    6918, 
    6921, 
    6922, 
    6923, 
    6924, 
    6925, 
    6926, 
    6927, 
    6928, 
    6929, 
    6930, 
    6931, 
    6932, 
    6933, 
    6936, 
    6937, 
    6940, 
    6941, 
    6942, 
    6943, 
    6944, 
    6945, 
    6946, 
    6947, 
    6948, 
    6949, 
    6950, 
    6951, 
    6952, 
    6955, 
    6956, 
    6959, 
    6960, 
    6961, 
    6962, 
    6963, 
    6964, 
    6965, 
    6966, 
    6967, 
    6968, 
    6969, 
    6970, 
    6971, 
    6974, 
    6975, 
    6978, 
    6979, 
    6980, 
    6981, 
    6982, 
    6983, 
    6984, 
    6985, 
    6986, 
    6987, 
    6988, 
    6989, 
    6990, 
    6993, 
    6994, 
    6997, 
    6998, 
    6999, 
    7000, 
    7001, 
    7002, 
    7003, 
    7004, 
    7005, 
    7006, 
    7007, 
    7008, 
    7009, 
    7012, 
    7013, 
    7016, 
    7017, 
    7018, 
    7019, 
    7020, 
    7021, 
    7022, 
    7023, 
    7024, 
    7025, 
    7026, 
    7027, 
    7028, 
    7031, 
    7032, 
    7035, 
    7036, 
    7037, 
    7038, 
    7039, 
    7040, 
    7041, 
    7042, 
    7043, 
    7044, 
    7045, 
    7046, 
    7047, 
    7050, 
    7051, 
    7054, 
    7055, 
    7056, 
    7057, 
    7058, 
    7059, 
    7060, 
    7061, 
    7062, 
    7063, 
    7064, 
    7065, 
    7066, 
    7069, 
    7070, 
    7073, 
    7074, 
    7075, 
    7076, 
    7077, 
    7078, 
    7079, 
    7080, 
    7081, 
    7082, 
    7083, 
    7084, 
    7085, 
    7088, 
    7089, 
    7092, 
    7093, 
    7094, 
    7095, 
    7096, 
    7097, 
    7098, 
    7099, 
    7100, 
    7101, 
    7102, 
    7103, 
    7104, 
    7107, 
    7108, 
    7111, 
    7112, 
    7113, 
    7114, 
    7115, 
    7116, 
    7117, 
    7118, 
    7119, 
    7120, 
    7121, 
    7122, 
    7123, 
    7126, 
    7127, 
    7130, 
    7131, 
    7132, 
    7133, 
    7134, 
    7135, 
    7136, 
    7137, 
    7138, 
    7139, 
    7140, 
    7141, 
    7142, 
    7145, 
    7146, 
    7149, 
    7150, 
    7151, 
    7152, 
    7153, 
    7154, 
    7155, 
    7156, 
    7157, 
    7158, 
    7159, 
    7160, 
    7161, 
    7164, 
    7165, 
    7168, 
    7169, 
    7170, 
    7171, 
    7172, 
    7173, 
    7174, 
    7175, 
    7176, 
    7177, 
    7178, 
    7179, 
    7180, 
    7183, 
    7184, 
    7187, 
    7188, 
    7189, 
    7190, 
    7191, 
    7192, 
    7193, 
    7194, 
    7195, 
    7196, 
    7197, 
    7198, 
    7199, 
    7202, 
    7203, 
    7206, 
    7207, 
    7208, 
    7209, 
    7210, 
    7211, 
    7212, 
    7213, 
    7214, 
    7215, 
    7216, 
    7217, 
    7218, 
    7221, 
    7222, 
    7225, 
    7226, 
    7227, 
    7228, 
    7229, 
    7230, 
    7231, 
    7232, 
    7233, 
    7234, 
    7235, 
    7236, 
    7237, 
    7240, 
    7241, 
    7244, 
    7245, 
    7246, 
    7247, 
    7248, 
    7249, 
    7250, 
    7251, 
    7252, 
    7253, 
    7254, 
    7255, 
    7256, 
    7259, 
    7260, 
    7263, 
    7264, 
    7265, 
    7266, 
    7267, 
    7268, 
    7269, 
    7270, 
    7271, 
    7272, 
    7273, 
    7274, 
    7275, 
    7278, 
    7279, 
    7282, 
    7283, 
    7284, 
    7285, 
    7286, 
    7287, 
    7288, 
    7289, 
    7290, 
    7291, 
    7292, 
    7293, 
    7294, 
    7297, 
    7298, 
    7301, 
    7302, 
    7303, 
    7304, 
    7305, 
    7306, 
    7307, 
    7308, 
    7309, 
    7310, 
    7311, 
    7312, 
    7313, 
    7316, 
    7317, 
    7320, 
    7321, 
    7322, 
    7323, 
    7324, 
    7325, 
    7326, 
    7327, 
    7328, 
    7329, 
    7330, 
    7331, 
    7332, 
    7335, 
    7336, 
    7339, 
    7340, 
    7341, 
    7342, 
    7343, 
    7344, 
    7345, 
    7346, 
    7347, 
    7348, 
    7349, 
    7350, 
    7351, 
    7354, 
    7355, 
    7358, 
    7359, 
    7360, 
    7361, 
    7362, 
    7363, 
    7364, 
    7365, 
    7366, 
    7367, 
    7368, 
    7369, 
    7370, 
    7373, 
    7374, 
    7377, 
    7378, 
    7379, 
    7380, 
    7381, 
    7382, 
    7383, 
    7384, 
    7385, 
    7386, 
    7387, 
    7388, 
    7389, 
    7392, 
    7393, 
    7396, 
    7397, 
    7398, 
    7399, 
    7400, 
    7401, 
    7402, 
    7403, 
    7404, 
    7405, 
    7406, 
    7407, 
    7408, 
    7411, 
    7412, 
    7415, 
    7416, 
    7417, 
    7418, 
    7419, 
    7420, 
    7421, 
    7422, 
    7423, 
    7424, 
    7425, 
    7426, 
    7427, 
    7430, 
    7431, 
    7434, 
    7435, 
    7436, 
    7437, 
    7438, 
    7439, 
    7440, 
    7441, 
    7442, 
    7443, 
    7444, 
    7445, 
    7446, 
    7449, 
    7450, 
    7453, 
    7454, 
    7455, 
    7456, 
    7457, 
    7458, 
    7459, 
    7460, 
    7461, 
    7462, 
    7463, 
    7464, 
    7465, 
    7468, 
    7469, 
    7472, 
    7473, 
    7474, 
    7475, 
    7476, 
    7477, 
    7478, 
    7479, 
    7480, 
    7481, 
    7482, 
    7483, 
    7484, 
    7487, 
    7488, 
    7491, 
    7492, 
    7493, 
    7494, 
    7495, 
    7496, 
    7497, 
    7498, 
    7499, 
    7500, 
    7501, 
    7502, 
    7503, 
    7506, 
    7507, 
    7510, 
    7511, 
    7512, 
    7513, 
    7514, 
    7515, 
    7516, 
    7517, 
    7518, 
    7519, 
    7520, 
    7521, 
    7522, 
    7525, 
    7526, 
    7529, 
    7530, 
    7531, 
    7532, 
    7533, 
    7534, 
    7535, 
    7536, 
    7537, 
    7538, 
    7539, 
    7540, 
    7541, 
    7544, 
    7545, 
    7548, 
    7549, 
    7550, 
    7551, 
    7552, 
    7553, 
    7554, 
    7555, 
    7556, 
    7557, 
    7558, 
    7559, 
    7560, 
    7563, 
    7564, 
    7567, 
    7568, 
    7569, 
    7570, 
    7571, 
    7572, 
    7573, 
    7574, 
    7575, 
    7576, 
    7577, 
    7578, 
    7579, 
    7582, 
    7583, 
    7586, 
    7587, 
    7588, 
    7589, 
    7590, 
    7591, 
    7592, 
    7593, 
    7594, 
    7595, 
    7596, 
    7597, 
    7598, 
    7601, 
    7602, 
    7605, 
    7606, 
    7607, 
    7608, 
    7609, 
    7610, 
    7611, 
    7612, 
    7613, 
    7614, 
    7615, 
    7616, 
    7617, 
    7620, 
    7621, 
    7624, 
    7625, 
    7626, 
    7627, 
    7628, 
    7629, 
    7630, 
    7631, 
    7632, 
    7633, 
    7634, 
    7635, 
    7636, 
    7639, 
    7640, 
    7643, 
    7644, 
    7645, 
    7646, 
    7647, 
    7648, 
    7649, 
    7650, 
    7651, 
    7652, 
    7653, 
    7654, 
    7655, 
    7658, 
    7659, 
    7662, 
    7663, 
    7664, 
    7665, 
    7666, 
    7667, 
    7668, 
    7669, 
    7670, 
    7671, 
    7672, 
    7673, 
    7674, 
    7677, 
    7678, 
    7681, 
    7682, 
    7683, 
    7684, 
    7685, 
    7686, 
    7687, 
    7688, 
    7689, 
    7690, 
    7691, 
    7692, 
    7693, 
    7696, 
    7697, 
    7700, 
    7701, 
    7702, 
    7703, 
    7704, 
    7705, 
    7706, 
    7707, 
    7708, 
    7709, 
    7710, 
    7711, 
    7712, 
    7715, 
    7716, 
    7719, 
    7720, 
    7721, 
    7722, 
    7723, 
    7724, 
    7725, 
    7726, 
    7727, 
    7728, 
    7729, 
    7730, 
    7731, 
    7734, 
    7735, 
    7738, 
    7739, 
    7740, 
    7741, 
    7742, 
    7743, 
    7744, 
    7745, 
    7746, 
    7747, 
    7748, 
    7749, 
    7750, 
    7753, 
    7754, 
    7757, 
    7758, 
    7759, 
    7760, 
    7761, 
    7762, 
    7763, 
    7764, 
    7765, 
    7766, 
    7767, 
    7768, 
    7769, 
    7772, 
    7773, 
    7776, 
    7777, 
    7778, 
    7779, 
    7780, 
    7781, 
    7782, 
    7783, 
    7784, 
    7785, 
    7786, 
    7787, 
    7788, 
    7789, 
    7790, 
    7791, 
    7792, 
    7793, 
    7794, 
    7795
  ], 
  "heads": [[6003, 0, 0]], 
  "attrs": {"mxnet_version": ["int", 10200]}
}